hw4/p2_cl.pth (torch_old, 45676 bytes, 2 tensors)

hidden1.weight f4 [11, 1024]
0.006775941 -0.015229513 0.014463142 -0.019767966 0.020603498 0.008878291 0.0048862933 -0.001485666
0.0021394826 -0.0061943894 0.005502001 0.00011548058 -0.030479854 -0.009280163 -0.0012388934 -0.0029027064
0.011193512 0.0025953208 0.005865311 -0.015969962 0.013170209 -0.012549481 -0.00198831 0.0009617681
0.011225871 0.016555322 -0.0022529159 0.026370555 -0.026671678 0.01679177 -0.0005923764 0.018517412
0.008466138 -0.0030570754 0.013609502 -0.021970937 -0.0010058739 0.015353539 0.008267575 -0.015471634
0.0033401162 0.0048677996 -0.02778233 -0.009643119 -0.0031875784 0.008828458 -0.012642002 -0.027670963
-0.0413186 -0.0002476262 -0.008743152 -0.014267046 0.011555458 0.017566716 0.008625407 -0.009881612
-0.0015606999 -0.0010970986 -0.012823898 0.0107063 0.0128457025 -0.0010140056 0.024390766 0.005147142
-0.0023837956 0.017536132 -0.013019987 -0.030627033 0.0054231035 -0.005690627 0.015062879 0.0012339521
-0.013344654 0.0074801217 -0.0060084388 -0.015014171 -0.008142322 -0.023499101 0.009016079 -0.0002664224
-0.0075428598 0.012894734 -0.029558385 0.00040339283 -0.010887814 0.048342604 -0.00474504 9.871126e-05
0.023105413 0.027530171 -0.04716751 -0.009656122 -0.027398715 0.0140718715 -0.011454255 -0.0069457805
-0.0060432437 -0.008583194 0.011372623 0.0033393754 -0.018909596 -0.009153006 0.037644155 -0.017919304
0.025005499 -0.009620429 -0.012565921 -0.0033899015 -0.0077221496 -0.0143215265 -0.026409565 0.0013293434
-0.012674497 0.017418468 -0.025691338 -0.010569276 -0.0035019887 -0.025372626 -0.016906187 0.03614812
0.004835078 -0.008199188 0.029156119 -0.023324994 0.01682428 -0.018309966 -0.018759573 0.010812257
0.0096330475 -0.0032791207 -0.0072053974 0.013852519 -0.0010074382 -0.00904814 0.024956949 -0.00652248
0.03102142 -0.025164524 0.014373654 -0.0023607821 -0.019547995 0.01053456 0.02289819 -0.0029895294
0.036898457 0.0015233043 0.03231429 0.02631835 0.029566238 0.022854831 -0.018179428 0.00046410534
0.006253006 -0.039637953 0.0033894707 -0.03932609 -0.011991097 -0.020616377 -0.004358335 0.010137478
-0.027492942 0.010284024 0.010142636 0.03152765 0.024494985 0.017927712 0.011825474 0.0047166995
-0.035625324 -0.037055142 0.017918508 0.023002027 -0.0058884597 0.0075204684 0.0017558743 -0.0075602583
-0.017544473 0.018074907 0.011507264 -0.021791575 0.012621989 -0.022707654 0.011328358 0.0025301622
-0.006185952 0.00488443 0.0051576146 -0.025479306 0.0019841914 -0.012706093 -0.0038933696 -0.0007371776
0.0014272473 0.010783455 -0.031874858 0.022341918 -0.034200676 0.019390069 -0.0021428443 -0.010716734
0.00023113842 -0.019979969 0.012637239 0.010045024 -0.0054097874 -0.027403928 -0.011274145 0.003887297
0.0013983801 0.005870122 -0.0077288873 -0.014015272 0.016797658 0.0091492105 -0.04451407 0.019533066
-0.015688825 -0.0065016067 0.0023408423 0.00047774732 0.005647632 -0.008346412 -0.005540826 -0.014999178
-0.02749138 0.009552837 -0.006954471 -0.024677312 0.0055610766 0.002353092 0.0086271735 -0.00804556
0.0067196195 -0.022628974 -0.0045357426 -0.0015555203 -0.0045180423 0.011488511 -3.7587415e-05 0.010684895
-0.013967657 0.00785456 0.010288193 -0.010299858 0.0051291464 0.032964576 0.002091809 0.0036475377
0.014557798 0.015427267 0.012905833 -0.044512562 0.029761048 0.013231312 0.006692038 0.0061542965
00000000: b608 de3b 3585 79bc d0f6 6c3c 6ef0 a1bc
00000010: abc8 a83c 4076 113c 331d a03b aeba c2ba
00000020: 9036 0c3b 4efa cabb 214a b43b 2a2e f238
00000030: e3b0 f9bc d30b 18bc 5d62 a2ba 553b 3ebb
00000040: fe64 373c 4216 2a3b cb31 c03b 70d3 82bc
00000050: dcc7 573c 579c 4dbc 4e4e 02bb 2a1f 7c3a
00000060: b7ec 373c 079f 873c a8a5 13bb 1007 d83c
00000070: 907e dabc e58e 893c b549 1bba d4b1 973c
00000080: 8eb5 0a3c 3759 48bb 64fa 5e3c 65fc b3bc
00000090: 87d7 83ba 698d 7b3c b974 073c bd7c 7dbc
000000a0: dae5 5a3b 1082 9f3b c597 e3bc 2cfe 1dbc
000000b0: b1e6 50bb 3da5 103c 6620 4fbc 37ae e2bc
000000c0: b13d 29bd d3d3 81b9 703f 0fbc 54c0 69bc
000000d0: 1b53 3d3c 13e8 8f3c 9451 0d3c 7ce6 21bc
000000e0: 6690 ccba 85cc 8fba 541b 52bc 7a69 2f3c
000000f0: c876 523c 62e8 84ba 25cf c73c 5ba9 a83b
00000100: 7439 1cbb efa7 8f3c c951 55bc 8be5 fabc
00000110: 4ab4 b13b 7078 babb 4bca 763c 90bc a13a
00000120: 89a3 5abc cf1b f53b 70e2 c4bb fffd 75bc
00000130: 6067 05bc 3081 c0bc 2db8 133c 9cae 8bb9
00000140: 182a f7bb 6f44 533c 6d24 f2bc 787e d339
00000150: cd62 32bc e502 463d 487c 9bbb 3403 cf38
00000160: 9047 bd3c f486 e13c b832 41bd b634 1ebc
00000170: 4573 e0bc b58d 663c a1aa 3bbc 6e99 e3bb
00000180: 6706 c6bb 86a0 0cbc 3d54 3a3c 6cd9 5a3b
00000190: 4ce8 9abc 7df6 15bc c230 1a3d 81cb 92bc
000001a0: 55d8 cc3c 019f 1dbc 4be1 4dbc 1c29 5ebb
000001b0: 160a fdbb d6a4 6abc df58 d8bc 5d3d ae3a
000001c0: b2a8 4fbc 2db1 8e3c a476 d2bc c22a 2dbc
000001d0: 9f81 65bb 41da cfbc d87e 8abc 0d10 143d
000001e0: 936f 9e3b e355 06bc d0d8 ee3c 0f14 bfbc
000001f0: 13d3 893c c8fe 95bc adad 99bc e525 313c
00000200: eed3 1d3c 84e6 56bb 411b ecbb adf5 623c
00000210: 040c 84ba a63e 14bc 8472 cc3c 87ba d5bb
00000220: a220 fe3c d525 cebc 797f 6b3c 5ab7 1abb
00000230: 1e23 a0bc 2699 2c3c fc94 bb3c fbeb 43bb
00000240: d622 173d 9ca9 c73a fd5b 043d 9599 d73c
00000250: e534 f23c 0e3a bb3c 06ed 94bc 2a53 f339
00000260: 04e6 cc3b 685b 22bd e221 5e3b 6514 21bd
00000270: 4e76 44bc ade3 a8bc 5dd0 8ebb aa17 263c
00000280: e138 e1bc 537e 283c 4c2d 263c 2323 013d
00000290: b5a9 c83c 23dd 923c a2bf 413c 8b8e 9a3b
000002a0: dceb 11bd 22c7 17bd d6c9 923c bf6e bc3c
000002b0: fbf3 c0bb 436e f63b 5d25 e63a 0bbc f7bb
000002c0: 6db9 8fbc d411 943c f788 3c3c 3f84 b2bc
000002d0: 75cc 4e3c 6705 babc 949a 393c 14d1 253b
000002e0: 87b3 cabb 920d a03b 3501 a93b fab9 d0bc
000002f0: 3509 023b 372d 50bc e727 7fbb 273f 41ba
00000300: 7912 bb3a 17ad 303c 368f 02bd 6606 b73c
00000310: 0216 0cbd ecd7 9e3c f66e 0cbb 3e95 2fbc
00000320: bf5d 7239 08ad a3bc 6c0c 4f3c e293 243c
00000330: 9644 b1bb 347e e0bc 31b7 38bc 05c2 7e3b
00000340: da49 b73a 275a c03b 9b42 fdbb 50a0 65bc
00000350: 3e9b 893c 92e6 153c 6354 36bd cf03 a03c
00000360: da85 80bc 6e0b d5bb d168 193b 297a fa39
00000370: c50f b93b 64bf 08bc d18f b5bb 1dbf 75bc
00000380: 9a35 e1bc 8183 1c3c 55e2 e3bb 1328 cabc
00000390: b139 b63b 5536 1a3b fd58 0d3c 86d1 03bc
000003a0: 4130 dc3b 6660 b9bc 91a0 94bb 9ae2 cbba
000003b0: 160c 94bb 4f3a 3c3c 2ea7 1db8 b30f 2f3c
000003c0: 9ad8 64bc 6ab0 003c cf8f 283c bcc0 28bc
000003d0: 6612 a83b dd05 073d bb16 093b 870b 6f3b
000003e0: d583 6e3c a6c2 7c3c fd72 533c ce52 36bd
000003f0: 71cd f33c 25c8 583c e248 db3b fba9 c93b

hidden1.bias f4 [11]
0.02091802 -0.049158756 -0.010461201 0.061131876 0.0046801404 0.03467651 0.0062708706 0.017381389
-0.01691064 -0.044356026 -0.038706053
00000000: 445c ab3c b15a 49bd 7565 2bbc 6b65 7a3d
00000010: dd5b 993b f508 0e3d e07b cd3b 6a63 8e3c
00000020: 2f88 8abc aaae 35bd 3d8a 1ebd
