hw4/p3_cl.pth (torch_old, 45676 bytes, 2 tensors)

hidden1.weight f4 [11, 1024]
0.00968529 -0.009093023 0.020832473 -0.022302434 0.033670247 0.019721236 0.0097927805 -7.5286545e-05
-0.009989617 -0.018561926 0.0045819683 0.009863855 -0.01727671 -0.015745612 -0.008145045 0.0070807566
0.0067648795 -0.0036439004 0.015310302 -0.023665247 0.0071075866 -0.016408853 -0.0020478899 0.002474294
0.0211697 0.015525267 -0.008702685 0.016035244 -0.013270142 0.030618556 0.0048959893 0.020594781
0.00973445 -0.019353148 0.022774152 -0.032955997 0.0010396218 0.011967635 0.017748538 0.004867264
-0.0062255384 0.014493364 -0.012624918 -0.01834512 -0.002950623 -0.0013458459 -0.02199505 -0.019767364
-0.054554123 -0.0016151321 -0.020932982 -0.016674336 0.018908527 0.020562856 -0.0032638088 -0.0038124523
0.004940404 -0.015713645 -0.010822129 0.006288129 0.01042502 0.0016361187 0.0305447 0.025203515
0.01993202 0.009005975 -0.008304782 -0.02331128 0.008935802 0.0065290625 0.023349483 -0.010129345
-0.007848885 -0.008003992 0.0056963363 -0.032792285 0.0025332451 -0.04836109 0.0065496718 0.004507904
-0.01883893 0.017987465 -0.03957597 -0.008194874 -0.017730499 0.046693943 -0.014687901 0.0027354783
0.030496633 0.03088852 -0.047528934 -0.012768937 -0.03857138 0.017726203 -0.019193174 -0.0012467654
-0.013551741 -0.006065736 0.012008123 0.007565806 -0.018977746 -0.0059953798 0.038293913 -0.0046969256
0.022302024 -0.019634917 -0.018800285 -0.0054473025 0.00043133943 -0.0076009226 -0.030319452 -0.0035336914
-0.00221338 0.0030051428 -0.026726246 -0.008871111 -0.011927202 -0.031781502 -0.02466723 0.041091386
-0.006528916 -0.014506585 0.026135685 -0.03635877 0.018953605 -0.016426552 -0.027257062 0.0035300134
0.010498109 -0.0051457756 -0.0058703646 0.008952247 -0.001936279 -0.0006501183 0.029217906 -0.013646314
0.038031444 -0.005708364 0.017282028 -0.018380305 -0.017432354 0.019479532 0.01367232 0.000445898
0.0292898 0.006252942 0.02713687 0.021108344 0.037358705 0.035637707 -0.018734416 0.012695234
-0.0010941173 -0.04660056 0.0010483272 -0.051985998 -0.010867618 -0.032455686 -0.006009164 0.013270743
-0.030564623 0.0061343885 0.0021267494 0.03948915 0.017433753 0.021162217 0.0038203627 -0.0002353677
-0.057521798 -0.0352115 0.014344741 0.044908367 -0.0016452275 0.0071782996 0.009774316 -0.0021673718
-0.017369617 0.025802094 0.011147458 -0.021374652 0.013868968 -0.024313405 0.014404509 0.0044741505
-0.0046843705 -0.01332718 -0.015430646 -0.043223042 -0.00824716 -0.01413907 -0.01684233 -0.0007605338
-0.002318396 0.01712112 -0.014493543 0.018090172 -0.038401645 0.02215774 0.0013069833 -0.008976169
0.004108544 -0.010017824 0.0061089317 0.019693865 0.016283628 -0.017387737 -0.01810077 0.0017118672
0.01391904 0.008039313 -0.0045646927 -0.0026390685 0.0078594405 0.02110988 -0.021599386 0.018739734
-0.005826375 0.012984984 0.0104968315 0.0013293898 0.003177229 0.00033016258 -0.0037615495 -0.016908133
-0.027890973 0.017082708 -0.010547045 -0.035481706 0.015547527 0.01623837 0.00062468526 0.004729987
0.0154565135 -0.023121083 0.006066482 0.007978912 -0.0047600972 0.008233391 0.0035717704 0.0069354093
-0.023282249 0.0030384061 0.015755644 -0.018068153 0.014050983 0.047951635 0.01036414 -0.009864111
0.018151393 0.029073674 0.021579718 -0.048005156 0.031846453 0.010755193 0.008877067 0.0010644834
00000000: 0daf 1e3c e7fa 14bc dda8 aa3c 98b3 b6bc
00000010: d0e9 093d 6e8e a13c e671 203c 28e3 9db8
00000020: 7eab 23bc 2e0f 98bc 5624 963b 029c 213c
00000030: e387 8dbc f1fc 80bc cb72 05bc b105 e83b
00000040: ecab dd3b 81ce 6ebb 10d8 7a3c 9fdd c1bc
00000050: c2e6 e83b dc6b 86bc e435 06bb c427 223b
00000060: 146c ad3c b15d 7e3c b595 0ebc 585c 833c
00000070: 026b 59bc c4d3 fa3c 896e a03b 63b6 a83c
00000080: 3e7d 1f3c 7e8a 9ebc dc90 ba3c defc 06bd
00000090: eb43 883a e613 443c 6265 913c 927d 9f3b
000000a0: 9aff cbbb 9375 6d3c bed8 4ebc 8148 96bc
000000b0: 3d5f 41bb 1867 b0ba f72e b4bc 2bef a1bc
000000c0: 2574 5fbd d7b2 d3ba a57b abbc 9e98 88bc
000000d0: 0ee6 9a3c 6f73 a83c a0e5 55bb 56da 79bb
000000e0: 1de3 a13b e7b9 80bc 4d4f 31bc a60c ce3b
000000f0: b4cd 2a3c 0973 d63a e138 fa3c 9a77 ce3c
00000100: 7a48 a33c cc8d 133c c810 08bc 4cf7 bebc
00000110: 7867 123c bff1 d53b 6a47 bf3c 8df5 25bc
00000120: 9c98 00bc 2d23 03bc 55a8 ba3b 3451 06bd
00000130: cd04 263b 4716 46bd a19e d63b 0ab7 933b
00000140: 1a54 9abc 735a 933c 6a1a 22bd cb43 06bc
00000150: 8d3f 91bc 2642 3f3d 86a5 70bc b645 333b
00000160: 13d4 f93c ec09 fd3c b3ad 42bd ce34 51bc
00000170: 06fd 1dbd 8b36 913c 013b 9dbc 816a a3ba
00000180: 1f08 5ebc 15c3 c6bb b8bd 443c 95ea f73b
00000190: 3877 9bbc e474 c4bb 14da 1c3d abe8 99bb
000001a0: bcb2 b63c 68d9 a0bc 0e03 9abc 497f b2bb
000001b0: 6625 e239 2911 f9bb 8060 f8bc 8195 67bb
000001c0: 5b0e 11bb eef1 443b 00f1 dabc 2358 11bc
000001d0: 506a 43bc 522d 02bd ee12 cabc 714f 283d
000001e0: 84f0 d5bb 07ad 6dbc 811a d63c efec 14bd
000001f0: 9744 9b3c fa90 86bc 344a dfbc cc57 673b
00000200: 4300 2c3c e59d a8bb 305c c0bb 72ac 123c
00000210: beca fdba b36c 2aba 645a ef3c ca94 5fbc
00000220: dcc6 1b3d 3a0d bbbb 0a93 8d3c 4b92 96bc
00000230: 4cce 8ebc 8a93 9f3c de01 603c 6bc7 e939
00000240: 2af1 ef3c 7be5 cc3b 244e de3c 68eb ac3c
00000250: 7105 193d d8f8 113d eb78 99bc acff 4f3c
00000260: 7c68 8fba 3be0 3ebd 0668 893a 45ef 54bd
00000270: 180e 32bc 41f0 04bd 85e8 c4bb 886d 593c
00000280: a962 fabc fb02 c93b ef60 0b3b 60bf 213d
00000290: 3bd1 8e3c 635c ad3c 0d5f 7a3b 09cd 76b9
000002a0: fa9b 6bbd ef39 10bd 3406 6b3c d6f1 373d
000002b0: ada4 d7ba f137 eb3b 7424 203c 770a 0ebb
000002c0: ba4a 8ebc ea5e d33c d4a3 363c e519 afbc
000002d0: ab3a 633c e82c c7bc e400 6c3c e59b 923b
000002e0: 597f 99bb 3f5a 5abc d2d0 7cbc a50a 31bd
000002f0: 191f 07bc 8fa7 67bc edf8 89bc 8f5e 47ba
00000300: 3bf0 17bb 9741 8c3c 5376 6dbc d731 943c
00000310: 0b4b 1dbd 2684 b53c 154f ab3a c810 13bc
00000320: f7a0 863b cd21 24bc 6f2d c83b 0755 a13c
00000330: 3e65 853c ba70 8ebc 1148 94bc bb60 e03a
00000340: af0c 643c 53b7 033c 6b93 95bb 39f4 2cbb
00000350: e2c4 003c a1ee ac3c 32f1 b0bc 1284 993c
00000360: 2deb bebb f8be 543c e7fa 2b3c eb3e ae3a
00000370: 0f39 503b ac19 ad39 5484 76bb ed82 8abc
00000380: 9c7b e4bc 09f1 8b3c 83cd 2cbc 4455 11bd
00000390: 0ebb 7e3c 5506 853c ebc1 233a 02fe 9a3b
000003a0: 513d 7d3c 6d68 bdbc 57c9 c63b fcb9 023c
000003b0: 97fa 9bbb 58e5 063c 5d14 6a3b 6e42 e33b
000003c0: 6aba bebc ff1f 473b fb11 813c aa03 94bc
000003d0: 1836 663c ef68 443d 5bce 293c 159d 21bc
000003e0: 3bb2 943c ea2b ee3c f3c7 b03c 0ea1 44bd
000003f0: 6d71 023d 8d36 303c 1e71 113c 2386 8b3a

hidden1.bias f4 [11]
0.039086107 -0.09320801 -0.041070815 0.048114445 0.004948079 0.012390458 -0.028592551 0.012679806
-0.028339846 -0.057218272 -0.041948512
00000000: c118 203d d7e3 bebd df39 28bd a713 453d
00000010: 7f23 a23b 5901 4b3c ed3a eabc f6be 4f3c
00000020: f728 e8bc b55d 6abd 34d2 2bbd
