hw3/ADDA_mnsv_L.pth (torch_old, 20612 bytes, 2 tensors)

hidden.weight f4 [10, 500]
0	0x3d49caad	0.049265552
1	0x3d0e165a	0.034689285
2	0xbe20770f	-0.15670417
3	0xbd8aec79	-0.06783385
4	0xbd165561	-0.036702517
5	0x3cac4b67	0.021032048
6	0xbcdf43ec	-0.027254067
7	0x3d1b29a6	0.037881516
8	0xbe07b521	-0.13252689
9	0xbdb12448	-0.08649498
10	0x3c60a529	0.013711252
11	0xbda3c8c9	-0.07997281
12	0x3d157b91	0.036494795
13	0xbda0dacf	-0.078542344
14	0x3db492cb	0.08817061
15	0x3c9e790e	0.019344833
16	0x3d01d078	0.031692952
17	0x3d033d85	0.03204109
18	0xbdbb1247	-0.091343455
19	0x3d7e7775	0.06212564
20	0x3d620793	0.055183005
21	0xbda14d93	-0.07876124
22	0xbe26bc15	-0.16282685
23	0xbe07cc9b	-0.13261645
24	0x3da06ea7	0.07833605
25	0xbe005cb3	-0.12535362
26	0x3d449244	0.047991052
27	0xbe145707	-0.14486323
28	0x3d497369	0.04918233
29	0xbe365b98	-0.17808378
30	0x3d40784a	0.046989717
31	0xbdc5a9fb	-0.09651562
32	0xbdebe8b7	-0.11518996
33	0xbe1bf2e6	-0.15229377
34	0x3d718549	0.058965
35	0x3d30b6bb	0.043143015
36	0x3d78770b	0.060660403
37	0xbe13c07a	-0.14428893
38	0xbd2da7a7	-0.042396214
39	0xbdf380dc	-0.11889812
40	0x3d42ccbf	0.047558542
41	0xbdfb49c5	-0.1226993
42	0x3d82df98	0.063903034
43	0xbc529589	-0.012853035
44	0xbcd2c164	-0.025726981
45	0xbd38340e	-0.04497152
46	0x3dbb1e39	0.09136624
47	0xbdb5ed1f	-0.08883118
48	0x3dada1f4	0.08478156
49	0x3d5a2bf0	0.05326456
50	0xbe0e20c6	-0.1387969
51	0xbe0a856b	-0.13527457
52	0x3d250f8e	0.040298037
53	0xbd2cf37d	-0.042224396
54	0x3da3d40d	0.0799943
55	0xbd324436	-0.043522082
56	0xbe0b0556	-0.13576254
57	0xbe02422f	-0.1272056
58	0xbd1c443d	-0.038151015
59	0xbd0460ad	-0.03231876
60	0xbe0e7aab	-0.13913982
61	0x3d39dad8	0.04537472
62	0xbdfa9fc9	-0.12237508
63	0xbdd988a7	-0.106217675
64	0xbe195e1a	-0.14977303
65	0xbdfa8c2b	-0.12233766
66	0x3dbc8f26	0.09206991
67	0xbdaa46d5	-0.083142914
68	0xbc2eb801	-0.010663987
69	0xbcf9459e	-0.030428704
70	0xbc8a66f5	-0.016894797
71	0xbd8780ca	-0.066163614
72	0x3d77576e	0.060386114
73	0x3db1499f	0.0865662
74	0x3d8218d5	0.063523926
75	0xbdd5e9e3	-0.10445001
76	0x3db85dfa	0.090022996
77	0x3e44a87b	0.19204895
78	0xbe0020fc	-0.12512583
79	0xbcbf3320	-0.023339808
80	0xbcd05a51	-0.025433691
81	0x3d84862a	0.06470902
82	0x3cefb207	0.029259695
83	0x3d6f0e5a	0.058363296
84	0x3d6764db	0.056492668
85	0xbe47fbf1	-0.19529702
86	0x3b76997d	0.0037628107
87	0xbddfa273	-0.109196566
88	0x3de22dc7	0.110438876
89	0x3dd72827	0.10505705
90	0x3ccdef66	0.025138568
91	0xbde68566	-0.112559125
92	0x3d7cd9de	0.06173121
93	0xbd3f04c8	-0.04663542
94	0x3d938364	0.07202795
95	0xbd824089	-0.06359965
96	0x3d489658	0.048971504
97	0x3d94f0c0	0.07272482
98	0xbd7364ed	-0.059422422
99	0xbdc34ca6	-0.09536104
100	0xbe1b0d4e	-0.15141794
101	0xbe2252cd	-0.15851898
102	0x3cb8ba52	0.022549782
103	0xbd704b3a	-0.05866549
104	0x3c288815	0.010286351
105	0xbddedd44	-0.10882047
106	0xbe192a9b	-0.14957659
107	0x3d956a81	0.07295705
108	0x3d639ab3	0.055567455
109	0x3d87716d	0.06613431
110	0x3c484533	0.01222353
111	0xbe0d201b	-0.13781779
112	0xbdd54d81	-0.10415173
113	0xbdc9e6a6	-0.09858446
114	0xbdeee168	-0.116640866
115	0x3d6ea7ae	0.05826538
116	0xbe09417d	-0.13403888
117	0xbdc891ae	-0.09793411
118	0x3d2f85aa	0.04285208
119	0x3d8b219a	0.06793518
120	0x3d0ab5d0	0.033864796
121	0xbe23604d	-0.15954705
122	0x3d6e7a9d	0.058222402
123	0xbdfca42d	-0.123360015
124	0x3c948780	0.018131018
125	0x3d748aa1	0.05970252
126	0xbddb4bcc	-0.107078165
127	0xbd041297	-0.03224429
128	0xbe0f1f5d	-0.13976808
129	0xbd9566db	-0.07295009
130	0x3d9d91f9	0.07693858
131	0x3d45990d	0.048241664
132	0xbbaf098e	-0.005341715
133	0x3d81a347	0.06329971
134	0xbdd01489	-0.10160167
135	0xbb0a97a9	-0.0021147525
136	0x3d941967	0.072314076
137	0x3d016ab3	0.031595897
138	0x3d275f2c	0.040862247
139	0x3cbc70fa	0.02300309
140	0x3d6c54af	0.057697948
141	0xbe1c52d3	-0.1526597
142	0x3d40c9d8	0.047067493
143	0xbcf6faed	-0.030148948
144	0x3cf80e92	0.030280385
145	0xbdf47fbc	-0.11938426
146	0xbd913a21	-0.07091165
147	0x3d46e271	0.048555795
148	0x3da1dca9	0.07903416
149	0x3d681d5f	0.056668635
150	0xbdc7122d	-0.09720264
151	0xbe046302	-0.12928393
152	0xbdeeeb23	-0.116659425
153	0x3d76c4a2	0.060246117
154	0x3db2988f	0.087205045
155	0x3da3aca0	0.0799191
156	0xbdac347d	-0.08408449
157	0xbdd3943b	-0.10331007
158	0xbe1e890f	-0.15481971
159	0x3ce6a30a	0.028153915
160	0xbe120b1e	-0.14262053
161	0xbd8a7c39	-0.06761975
162	0xbd9a88e2	-0.075456396
163	0xbd75ae6b	-0.05998079
164	0x395af4b9	0.00020881266
165	0x3d76b564	0.06023158
166	0x3d4a88bc	0.049446806
167	0xbd9f2e54	-0.07772508
168	0x3d8673d4	0.06565061
169	0xbd710d97	-0.05885085
170	0x3e0786fd	0.13235088
171	0xbda36030	-0.07977331
172	0x3d8723f8	0.06598657
173	0x3c8e559b	0.017374804
174	0x3c8ceb06	0.017201912
175	0xbd9cca6b	-0.07655796
176	0xbe106e84	-0.14104658
177	0x3d965005	0.07339481
178	0x3ca5b919	0.020229863
179	0x3d41e1f1	0.047334615
180	0xbe2c0f00	-0.16802597
181	0x3d63a1d7	0.055574264
182	0xbe000713	-0.12502699
183	0xbdf380b3	-0.11889782
184	0xbdbd0cb7	-0.09230941
185	0x3ddac6e4	0.106824666
186	0x3d645b4b	0.055751126
187	0xbe02eade	-0.12784907
188	0x3cf295c8	0.029612437
189	0xbd4abab4	-0.04949446
190	0xbd478105	-0.048707027
191	0x3d72abe2	0.05924595
192	0xbdbb4c5d	-0.091454245
193	0xbd3b2387	-0.04568818
194	0xbc82bc7d	-0.015959019
195	0x3d287a5e	0.041132323
196	0x3d8d8e0a	0.069118574
197	0x3d80eeda	0.06295557
198	0x3d7131b0	0.058885276
199	0x3d7f3f25	0.06231608
200	0x3d9a896f	0.07545745
201	0xba87ba2f	-0.001035517
202	0xbe05db6f	-0.13071989
203	0xbe377027	-0.17913876
204	0xbda82d61	-0.0821178
205	0xbe032033	-0.12805252
206	0x3d17fcfa	0.03710649
207	0x3d52da91	0.051477972
208	0xbb9f2690	-0.004856892
209	0xbe124aee	-0.14286396
210	0x3d957a18	0.07298678
211	0xbe04f39b	-0.12983553
212	0xbe2a8cef	-0.16655324
213	0xbd942cd8	-0.07235116
214	0xbd08e27b	-0.033419114
215	0xbdc04dc0	-0.0938983
216	0x3d948e27	0.07253676
217	0xbe13ada5	-0.14421709
218	0x3d78d1aa	0.060746826
219	0xbd8ae3d6	-0.067817375
220	0x3da0bb93	0.07848277
221	0xbde035ee	-0.10947786
222	0xbe1babd0	-0.1520226
223	0x3d9294de	0.071573004
224	0x3cb7fb4d	0.022458697
225	0x3d49d263	0.049272906
226	0x3d9c9e16	0.0764734
227	0x3d5f2e13	0.0544873
228	0x3cf051fa	0.029335964
229	0x3c8df146	0.017326962
230	0x3d18fc5e	0.03735005
231	0x3da19cff	0.07891273
232	0x3d4d2861	0.050087336
233	0xbd7a75f1	-0.061147634
234	0x3ab54349	0.0013829257
235	0xbd9aa2b9	-0.07550568
236	0xbd689bf0	-0.05678934
237	0x3d582dd5	0.052778084
238	0x3a45d1ab	0.00075461966
239	0x3cc8ef91	0.024528297
240	0xbccade71	-0.024764271
241	0xbda5d88c	-0.08097944
242	0xbdf3a3bb	-0.118964635
243	0x3b583df5	0.0032995914
244	0x3cebd73b	0.028789153
245	0xbd98841a	-0.074470714
246	0xbe1e13ee	-0.1543729
247	0x3d2168b8	0.03940651
248	0xbcd65eba	-0.026168216
249	0xbdff8ab4	-0.124776274
250	0xbc37502a	-0.011188546
251	0xbd69d8ba	-0.057091452
252	0x3d918bb2	0.07106723
253	0xbe129cca	-0.14317623
254	0x3d7cd244	0.061723962
255	0x3dadb9b2	0.08482684

hidden.bias f4 [10]
0	0x3d97c49f	0.07410549
1	0x3da9b748	0.08286911
2	0xbcf672a2	-0.030083958
3	0xbc8c7e09	-0.017149942
4	0xbd64dcf5	-0.055874784
5	0x3b111217	0.0022136027
6	0x3d2c8cc8	0.042126447
7	0xbcd5f32b	-0.026116928
8	0xbd3ad60e	-0.045614295
9	0xbbec4e43	-0.007211478
