hw3/ADDA_svmn_L.pth (torch_old, 20612 bytes, 2 tensors)

hidden.weight f4 [10, 500]
0	0x3c926d7b	0.01787447
1	0x3c6b3482	0.014355781
2	0xbe0710db	-0.13190024
3	0x3d967a6b	0.07347568
4	0x3d8889ac	0.06666884
5	0x3d895f7e	0.06707667
6	0x3d9d3493	0.07676043
7	0xbdc58742	-0.09644939
8	0x3d5605d3	0.05225165
9	0x3ca4a6fd	0.020099157
10	0xbe047ad7	-0.12937485
11	0x3bddfce7	0.006774533
12	0x3cdaf25d	0.026726896
13	0x3dd690a8	0.1047681
14	0x3c087439	0.008328491
15	0xbe2db787	-0.16964541
16	0xbb962cec	-0.004582992
17	0x3d86b6bd	0.06577823
18	0x3d61d412	0.055133887
19	0xbdec3331	-0.115332015
20	0x3d410c58	0.047130913
21	0x3d9f7565	0.07786063
22	0x3d70959e	0.058736436
23	0x3ba923fb	0.00516176
24	0xbddf28be	-0.10896443
25	0xbc962049	-0.018325942
26	0xbc2ac6af	-0.010423346
27	0xbd8d879f	-0.06910633
28	0xba8697a6	-0.0010268583
29	0x3c2783d0	0.010224298
30	0x3d5147f9	0.05109403
31	0x3dca479b	0.09876939
32	0x3ddfa4f8	0.10920137
33	0xbe147dbf	-0.14501093
34	0x3db440a7	0.08801394
35	0x3bcafe6c	0.00619488
36	0x3dbba8c3	0.09163048
37	0x3dc5939a	0.096472934
38	0x3c3963f3	0.011315334
39	0x3dc941d2	0.09827007
40	0x3cf883c7	0.030336274
41	0xbe187054	-0.148866
42	0xbe353d23	-0.17699103
43	0xbe56f3a7	-0.20991383
44	0xbd40317f	-0.046922203
45	0xbd1f740c	-0.03892903
46	0x3dcd55be	0.1002612
47	0xbd34656a	-0.04404203
48	0x3ba07828	0.0048971362
49	0xbde1bf33	-0.110227965
50	0x3df2e35d	0.11859772
51	0x3dc23de4	0.09484461
52	0x3d162a1e	0.03666126
53	0xbe141122	-0.1445966
54	0x3c6a28c0	0.014291942
55	0xb9a3d372	-0.00031247322
56	0x3dbe27e2	0.09284951
57	0xbd31d9b3	-0.043420505
58	0xbd7a15a0	-0.06105578
59	0x3cb8a332	0.022538755
60	0x3b610a03	0.0034338243
61	0x3d0035f1	0.031301443
62	0xbdfc1972	-0.12309541
63	0xbcd65434	-0.026163198
64	0x3ca57bff	0.020200728
65	0xbe397fa7	-0.18115102
66	0xbe046bf8	-0.12931812
67	0x3d7cdb11	0.061732356
68	0x3c98ce98	0.0186532
69	0xbe37baaf	-0.17942308
70	0x3d04956c	0.032369062
71	0x3d5a375a	0.053275444
72	0x3d96d21a	0.073642924
73	0x3dafabfc	0.08577725
74	0xbe1f70d5	-0.15570386
75	0xbe1ab761	-0.15109016
76	0x3dab7ae2	0.083730474
77	0xbd284c28	-0.041088253
78	0x3d863019	0.06552143
79	0x3d4ee494	0.050510958
80	0xbdebbe22	-0.11510874
81	0x3d54732d	0.051867653
82	0x3df2561a	0.11832829
83	0xbe1743e3	-0.1477199
84	0x3d97541e	0.07389091
85	0x3d815291	0.063145764
86	0x3d120c86	0.035656475
87	0x3dd5f22f	0.104465835
88	0x3cd5d1d2	0.026101027
89	0xbce23e57	-0.027617617
90	0xbce2c073	-0.027679658
91	0xbbd9c37e	-0.006645619
92	0x3be1c8ba	0.0068903835
93	0xbc5adb61	-0.013357968
94	0x3d04442f	0.032291587
95	0x3ccae685	0.024768123
96	0xbe09f8bd	-0.13473792
97	0x3c86a562	0.016436283
98	0x3d0894e2	0.03334511
99	0xbe2ac80f	-0.16677879
100	0x3d702098	0.058624834
101	0x3d337036	0.043808185
102	0xbe09227b	-0.1339206
103	0xbd992487	-0.0747767
104	0x3d756907	0.059914615
105	0xbe1e04aa	-0.15431467
106	0x3de69a4e	0.112599
107	0xbc7b8672	-0.0153518785
108	0x3cfda367	0.030961705
109	0xbd50e178	-0.050996274
110	0xbd41239c	-0.0471531
111	0xbdc16096	-0.094422504
112	0xbdd3f80d	-0.10350046
113	0x3d7fd48b	0.062458556
114	0x3ce41071	0.027839871
115	0xbd0a1266	-0.033708952
116	0xbe1b5fc8	-0.15173256
117	0x3da4db54	0.08049646
118	0xbd2a996c	-0.04165022
119	0x3c72d90a	0.014822254
120	0x3d7c55d9	0.06160531
121	0xbd4d20e0	-0.05008018
122	0xbd276c8f	-0.040875014
123	0xbd080733	-0.03320999
124	0x3e147bd1	0.14500357
125	0x3e219406	0.15779123
126	0xbd5f6ac9	-0.054545198
127	0x3d9ccd04	0.07656291
128	0xbdfe889a	-0.124283984
129	0x3c9a2e9d	0.018821055
130	0xbda50bf1	-0.08058918
131	0x3d9d60a6	0.0768445
132	0xbcad5ea7	-0.021163298
133	0x3de0a4ce	0.10968934
134	0xbda1dc35	-0.07903329
135	0xbdd7608b	-0.10516461
136	0xbdca7176	-0.09884922
137	0xbd54dd6a	-0.05196897
138	0x3ddae450	0.106880784
139	0x3cec5cd4	0.028852858
140	0x3d2b1300	0.041766167
141	0xbdb67cb8	-0.08910507
142	0x3dc11f33	0.09429779
143	0x3c4b803b	0.012420709
144	0xbd6a15cd	-0.057149697
145	0xbd29080b	-0.041267436
146	0xbda3722d	-0.07980762
147	0x3dc83e8d	0.097775556
148	0x3c039551	0.008031205
149	0x3d0e9712	0.03481204
150	0xbe386e66	-0.18010864
151	0xbd2242c4	-0.039614454
152	0xbca2ead0	-0.019887358
153	0x3e04f3ff	0.12983702
154	0x3d5db1dd	0.0541247
155	0xbe33823d	-0.1753015
156	0x3daf4e75	0.08559886
157	0xbdc9a20b	-0.0984536
158	0x3c8e8745	0.017398486
159	0x3b1df557	0.0024102533
160	0x3dac49eb	0.08412536
161	0x3c891df7	0.016737921
162	0xbd8b6ebb	-0.068082295
163	0xbe1c435d	-0.15260072
164	0xbd586f45	-0.05284049
165	0x3d8f2b38	0.06990665
166	0x3dbbd95a	0.09172316
167	0xbe0374c0	-0.12837505
168	0x3dfc0f56	0.123076126
169	0x3d99042a	0.07471497
170	0xbce1c2ab	-0.027558645
171	0xbe2907d3	-0.16506891
172	0x3d68325f	0.056688663
173	0x3d105508	0.035237342
174	0x3e01d81b	0.12680094
175	0x3da59381	0.08084775
176	0x3d6e3087	0.058151748
177	0xbc942845	-0.018085608
178	0xbda849e1	-0.08217216
179	0x3c9bcb17	0.01901774
180	0xbe4c614e	-0.19958994
181	0x3bc8c943	0.006127508
182	0xbda43c8a	-0.080193594
183	0xbde57f32	-0.11205901
184	0x3bf8a204	0.007587673
185	0xbe0c72d3	-0.13715677
186	0xbe26a1ad	-0.16272612
187	0x3d581880	0.05275774
188	0xbdb25832	-0.08708228
189	0x3d20ae06	0.03922846
190	0xbdba050b	-0.09082993
191	0xbd03d459	-0.032184932
192	0x3d9ed793	0.07755961
193	0x3dd54114	0.10412803
194	0xbdb981da	-0.0905797
195	0xbd708d4e	-0.05872851
196	0xbd829747	-0.0637651
197	0xbd8a270b	-0.06745728
198	0xbdffa85c	-0.12483284
199	0xbe0f72ab	-0.14008586
200	0x3d8e2edd	0.06942532
201	0x3e0011e9	0.12506832
202	0xbe5be5da	-0.214744
203	0xbe2d4721	-0.16921665
204	0x3d993898	0.074814975
205	0x3d5db0e0	0.05412376
206	0xbd4350a6	-0.047684334
207	0xbc81999a	-0.015820313
208	0x3de17681	0.11008931
209	0x3d941df3	0.07232275
210	0xbac6019a	-0.0015106678
211	0x3cfb87f1	0.03070447
212	0x3cb8fb6e	0.022580829
213	0xbdadeba2	-0.08492209
214	0x3ad2b092	0.001607435
215	0xbe533785	-0.20626648
216	0xbce06de5	-0.027396152
217	0x3dec1b51	0.11528648
218	0x3a5481d8	0.00081065064
219	0x3d522484	0.051304355
220	0x3d4722f4	0.04861732
221	0xbdf0fb96	-0.11766736
222	0x3c00b4cf	0.007855608
223	0xbe142bc8	-0.14469826
224	0x3de15bda	0.110038474
225	0x3d47b215	0.048753817
226	0x3db16d80	0.086634636
227	0x3db90995	0.09035031
228	0x3d4723ce	0.04861813
229	0xbd73bf40	-0.059508562
230	0xbde02e4b	-0.1094633
231	0x3d3e5392	0.046466418
232	0xbe128e21	-0.1431203
233	0xbdd5d356	-0.104407
234	0xbdb619a6	-0.08891611
235	0xbd9f9678	-0.077923715
236	0x3db5f6a0	0.088849306
237	0xbdcd9553	-0.10038247
238	0x3ce7bfa7	0.02828963
239	0xbe0c7769	-0.13717426
240	0xbc9306b7	-0.017947538
241	0x3d56c42a	0.05243317
242	0xbdac3be7	-0.08409863
243	0xbe10142c	-0.14070195
244	0xbd967f0e	-0.073484525
245	0xbe7622b9	-0.24036683
246	0xbe8db894	-0.27679884
247	0xbdcb1aec	-0.09917244
248	0x3d657ece	0.056029133
249	0x3d1ca6a3	0.038244855
250	0x3defc1fa	0.1170692
251	0x3d5d9339	0.05409548
252	0xbe12e6d1	-0.14345862
253	0x3ce3149e	0.027719792
254	0xbcc1d79e	-0.023662385
255	0x3dbecdf6	0.09316628

hidden.bias f4 [10]
0	0xbd95acbd	-0.07308338
1	0xbc273af9	-0.010206931
2	0x3d560fbb	0.052261095
3	0x3d808be9	0.06276686
4	0xbce1a3f6	-0.027544003
5	0x3d90afdc	0.070647925
6	0xbc588fd1	-0.013217882
7	0xbdc9cfca	-0.09854086
8	0xbbf0f886	-0.007353845
9	0xbd1184eb	-0.03552715
