hw3/DANN_svmn_L.pth (torch_old, 865361 bytes, 6 tensors)

hidden1.weight f4 [256, 576]
00000000: 9bd3 10b4 c289 0036 c9cb 8235 64f4 42b6
00000010: cc05 c5b8 b806 efb6 b707 bab6 a897 b6b8
00000020: 1b5e 24b8 e0e1 1829 9883 7fb7 0411 40b8
00000030: bbfd 192d d55b e5b1 8ce0 46b5 181b 21a0
00000040: 4116 6fb8 56cc d037 22db a90d 01a8 f58f
00000050: d8b2 9210 3f83 100e 0d90 f81d 08bc a9a8
00000060: 7930 518f 635b 47a8 9517 f5ae f958 ada2
00000070: 073a a233 a616 f035 c117 ae92 8a2b aa34
00000080: 0b21 72b6 b31a 8d8e 5310 e1b0 902a 7931
00000090: 14e9 13ba 016f 48ba be48 c2b9 7090 02b9
000000a0: c600 6aba c793 42b9 26fe 02ba 9840 d9b8
000000b0: 6adb 24b8 8bd8 bd8e d0ae 73a9 9a03 ec99
000000c0: cb70 9010 10a5 b3a4 82f0 049c 5541 7790
000000d0: b36b 16a9 22dd c52a e2c4 1433 8138 8fb9
000000e0: ad3c 96b8 20e8 8b32 8d81 15ba b76e e1b9
000000f0: dfbf e732 44ec 1cba 833c 7bba 8e8d edab
00000100: 711d 68b7 906c 0b2f c575 dea6 571d f5b6
00000110: c3f0 ca33 0825 a2b0 042c 09b8 e41e 2fb5
00000120: 5727 c8b9 07ae 86ba 6a1f ffba b637 ee36
00000130: 22ed a538 95c0 703a 8d7d b2b6 5f2d 65b9
00000140: 1907 81b8 bafa 1fb0 aa1f 95b8 bd6e 09b9
00000150: cdaf 61b1 3697 dab8 a1fa 93b8 e618 4432
00000160: 1bbd 44b9 5571 07ba 5d00 1a0e d365 b6b1
00000170: f643 a8b5 fe98 888f ba3f 3ab5 22ca 94b3
00000180: 2c03 e68f 488b 8fb5 3a80 e1b3 e55f b18d
00000190: 33e9 48b8 3bc7 f4b7 eaf8 308f d97d f4b5
000001a0: 9220 dbb6 8e6c d78e d1e1 4cb5 2c28 9336
000001b0: e188 7b0e ad94 dc2c 313d 858f d13f 2b96
000001c0: 3e2a 44b0 f436 409a bd52 cc1a 82da ccb6
000001d0: 09d8 2434 c489 0cb0 9c32 54b7 4582 c0b5
000001e0: 6fb2 55b4 10c7 2f36 ea99 6138 183d 6136
000001f0: 6ab2 b9b8 aa11 1e37 7e0d 1f14 1fb7 5bb4
00000200: 7b90 3fb7 ec91 271b 4302 db32 80a2 bfb6
00000210: 83d2 411c 1ec8 f4ad 2a83 36ad 0dd6 ef22
00000220: 9227 14b9 efc3 f6b5 1b75 cd2f 8cae 86ba
00000230: 5975 a5b9 03c0 03a4 f782 29ba 31ef 89b9
00000240: 978f 84b8 d4f6 4bba 0707 c0b9 3e22 0bba
00000250: 1c47 f3ba f363 aaba 02a4 18ba 18d7 20bb
00000260: 3667 d9ba af3f 41bb a9de 35bb 7296 d7ba
00000270: b449 cbbb ca48 95bb b2b5 a0bb 8238 07bc
00000280: 276f 72bb f18c 10bb c2fe 04a6 e535 82a8
00000290: 6f27 37b3 8f4a 3bb2 38a4 cfb4 9440 beb7
000002a0: 292c f0b5 8edd 47b7 a034 3bb6 13ae 7ab9
000002b0: b99a adb7 7aa0 5db7 ff11 b1b8 df77 90b9
000002c0: a518 6eb9 08c1 cdb9 2eb4 f8b8 2785 1ab9
000002d0: 4e79 f612 6f7e 9830 ab33 0435 af5e 3d9c
000002e0: c2b0 8037 9043 2638 92ca a82e 6e66 033a
000002f0: 4969 0239 d376 94b6 5ec6 2cb9 5f17 1ab8
00000300: f4c2 8020 8e31 a8b3 40f9 7732 e4d9 448d
00000310: 8e45 84af 6ce3 f28f 60f4 91b6 2702 8dba
00000320: 9e45 8fba 7a30 b5b6 3383 2bba 744d 6bba
00000330: 5096 58b6 6390 bbba 9122 e1ba 3619 24ba
00000340: b3c1 c5b7 72d4 1d37 28b9 1aba 7df1 14ba
00000350: b726 d1b7 f29e 4dba 6325 0fba 122d 40b8
00000360: e0fe bb30 e246 a8b9 1a72 c0b9 016b e333
00000370: 0320 97ba d733 45ba 44b0 1332 1e8e f3ba
00000380: 0a9f a339 8f4e a0b3 59bf 0830 2491 d490
00000390: 730f 0db6 c6d2 0100 b0af 1a34 5e59 72ab
000003a0: b006 0280 5e30 1d13 ca1d e50f 5059 adb0
000003b0: 8fdb abb4 777f 0a90 16d1 b6b5 3def 4db7
000003c0: 1e02 3b10 4d34 3db7 b3bb 37b8 4b24 9036
000003d0: 4f46 81b7 ca9b 0cb6 bc32 04b8 a83c 10b7
000003e0: 539e 8fb6 dd16 20b8 6a99 beb7 2a5e 82b4
000003f0: d5fc b28e 5cac 32b4 acec e5b4 cb9a 0290
-1.3488027e-07 1.9153672e-06 9.745064e-07 -2.9050507e-06 -9.394772e-05 -7.123537e-06 -5.54413e-06 -8.7066845e-05
-3.918829e-05 3.3946695e-14 -1.52298235e-05 -4.5792214e-05 8.753383e-12 -6.6752173e-09 -7.4087507e-07 -1.3646195e-19
-5.7002766e-05 2.4890684e-05 1.0468183e-30 -2.4223578e-29 5.78624e-29 1.7812563e-30 6.5794e-21 -1.8844315e-14
-1.0313831e-29 -1.10665354e-14 -1.1145499e-10 -4.6985947e-18 7.554268e-08 1.7887985e-06 -1.09868e-27 3.1696646e-07
-3.6080044e-06 -3.4784894e-30 -1.6375544e-09 3.6258463e-09 -0.00056423363 -0.00076459354 -0.0003705676 -0.00012451573
-0.0008926507 -0.00018556333 -0.00049969775 -0.00010359398 -3.9304992e-05 -4.680062e-30 -5.4108465e-14 -2.4403283e-23
5.697177e-29 -7.79085e-17 -4.3985985e-22 -4.876249e-29 -3.3400105e-14 3.5147671e-13 3.4638e-08 -0.00027317184
-7.163859e-05 1.6287288e-08 -0.00057032035 -0.00042997833 2.6979192e-08 -0.0005986134 -0.0009583907 -1.6879152e-12
-1.3835132e-05 1.2680546e-10 -1.5436266e-15 -7.3049846e-06 9.450152e-08 -1.1797576e-09 -3.2704338e-05 -6.523753e-07
-0.00038176283 -0.0010275253 -0.0019464318 7.0994383e-06 7.9119825e-05 0.00091839704 -5.3194294e-06 -0.00021856044
-6.1525214e-05 -5.8200167e-10 -7.1107715e-05 -0.00013106591 -3.284174e-09 -0.00010423215 -7.0561895e-05 1.1414363e-08
-0.00018762464 -0.0005166729 1.898214e-30 -5.308473e-09 -1.2536755e-06 -1.3469566e-29 -6.9383134e-07 -6.928555e-08
-2.2680973e-29 -1.0694866e-06 -1.0500703e-07 -1.0931553e-30 -4.79009e-05 -2.917984e-05 -8.725409e-30 -1.8216043e-06
-6.5305003e-06 -5.3106126e-30 -7.632453e-07 4.385618e-06 3.1004043e-30 6.2692824e-12 -1.3138383e-29 -1.3833407e-25
-7.1364414e-10 -3.974906e-23 8.4506093e-23 -6.1051114e-06 1.5352283e-07 -5.112748e-10 -1.2647968e-05 -1.4343028e-06
-1.9902085e-07 2.6192902e-06 5.3787524e-05 3.3563174e-06 -8.8547196e-05 9.421647e-06 8.0301094e-27 -2.0462583e-07
-1.1418127e-05 1.3861066e-22 2.5495984e-08 -5.711161e-06 6.4130423e-22 -2.7828458e-11 -1.03746265e-11 6.5007715e-18
-0.00014129121 -1.8385452e-06 3.737249e-10 -0.0010275408 -0.00031558683 -2.8568737e-17 -0.00064663537 -0.00026308888
-6.320996e-05 -0.00077806157 -0.0003662633 -0.00053075317 -0.0018560621 -0.0012999758 -0.0005822779 -0.0024542268
-0.0016586545 -0.0029487421 -0.0027751124 -0.0016448034 -0.0062038545 -0.0045557963 -0.0049044723 -0.008253219
-0.0036992521 -0.0022056664 -4.614196e-16 -1.4456272e-14 -4.2643872e-08 -1.0901785e-08 -3.867624e-07 -2.2679837e-05
-1.7894246e-06 -1.1912909e-05 -2.7895803e-06 -0.00023906706 -2.0695255e-05 -1.320999e-05 -8.44337e-05 -0.0002755513
-0.0002270663 -0.00039244466 -0.000118591226 -0.00014736188 1.5554687e-27 1.109539e-09 4.924902e-07 -6.265723e-22
1.5341098e-05 3.9640407e-05 7.675739e-11 0.00050125166 0.00012436988 -4.4245767e-06 -0.00016477096 -3.6738227e-05
2.1813053e-19 -7.8321236e-08 1.4433965e-08 -6.065944e-31 -2.4060082e-10 -2.3950642e-29 -4.3497857e-06 -0.0010758088
-0.0010930782 -5.3998638e-06 -0.00065426825 -0.000897608 -3.2274002e-06 -0.0014309998 -0.0017176439 -0.000625986
-2.3574428e-05 9.407393e-06 -0.0005902224 -0.00056817365 -2.493277e-05 -0.0007843814 -0.0005460588 -4.5818342e-05
1.3678481e-09 -0.0003209627 -0.00036706106 1.0589975e-07 -0.0011529926 -0.00075226784 8.596604e-09 -0.0018581783
0.00031208276 -7.46487e-08 4.9748433e-10 -8.384288e-29 -2.101963e-06 1.67447e-40 1.4406282e-07 -8.6099693e-13
-1.8607e-40 1.9840033e-27 2.2592618e-29 -1.2612791e-09 -3.2010982e-07 -2.7313897e-29 -1.3620909e-06 -1.2274654e-05
3.6880878e-29 -1.1277455e-05 -4.380541e-05 4.2957595e-06 -1.5410738e-05 -2.0952307e-06 -3.1518503e-05 -8.5971915e-06
-4.2801635e-06 -3.8168266e-05 -2.2721204e-05 -2.42829e-07 -4.4123856e-30 -1.6640246e-07 -4.2826775e-07 -2.5757228e-29

hidden1.bias f4 [256]
00000000: 2857 44bb db8a fdb9 2a46 ff3c 729b b1bc
00000010: a867 bab9 224a 923b 89e8 15b3 55ed 5ab8
00000020: dd38 d7ac b9bd 09bc 6e35 693c c5ae b9a6
00000030: c232 98b3 6d08 b8b1 a13d eabb 5fda 6dbb
00000040: a4aa febc c6c5 57bc c671 04bd ac6e 2a9b
00000050: 3416 4e11 d732 03bb 5b2c 0abd 0ec7 35bd
00000060: ff36 0bba 3963 c0ba 55d7 8db4 62b6 77a9
00000070: b95f 2c3d 1106 67b4 ea7f 56b4 a6e5 95ba
00000080: c7e5 2e3d b9b2 37b2 2c08 2816 a460 0fb4
00000090: dd2b df3c 4603 3aaf 439c 5db7 4dfe 02bc
000000a0: 6a7f 34b4 a075 2a21 ecd8 ebb7 ca25 f0b6
000000b0: 88a3 9bb4 e1ce 1e99 1ad7 6cb0 5dc3 8983
000000c0: 826e 28bc a776 d6bb b195 8db7 ae81 1c3e
000000d0: 5b02 01b8 55f9 63b1 3925 e7bc d33f 83ba
000000e0: d92c cfbb 7fe3 9db4 537e aeab a432 a9bb
000000f0: e417 e1b4 c517 a4b9 9711 3eb0 e74d bab8
00000100: e95b bab3 df63 853d 6482 d5bc cf05 14bd
00000110: 17b6 233d 4a63 4dbb 1069 9ebb 4439 d3b7
00000120: 34bd 66bc 5390 1ab7 53ee a5b3 ddda 1dbd
00000130: a0b4 f2ba d58d 1cb0 269f 1d90 28d5 36bb
00000140: 581c f33c afd7 003d 0aa7 3eb5 0d0c abbb
00000150: c24b e1ac 4701 bab1 afe0 90bc 4076 15ae
00000160: 23e0 77a7 b5c5 ad3d c83e a4ba da8c a2b2
00000170: 4b2b 8513 0dce f5af 0ecf d2b4 f80a c7b9
00000180: 39f0 2cad a739 ee30 6759 67b2 3956 95b5
00000190: 103a 703d 053a a93e 11f0 3cac d359 6dbb
000001a0: 4b6b 33ac a221 24b7 4fee 46ac b2d5 3fb2
000001b0: fec0 75af 8a65 04b8 b808 f5b0 862a 553d
000001c0: 8779 98b0 597f 9eb9 2a9a 943d b6e2 4eb4
000001d0: 2c60 62bd 8bf3 8ab5 e7c4 65bc fe26 1cbb
000001e0: 701a 1537 6d10 0080 b27e 1cbb f908 0b3e
000001f0: a2cf 64b4 2128 2fac add1 23bd 913e 3ebb
00000200: 3170 8abd ef5a dfaf a2bc bd36 3217 a0bc
00000210: e0d8 42b2 fea4 19aa d56e 8c2c 0db0 a8b0
00000220: 836a 9bba 1bb7 8cb5 b8bb 0fab 06a9 44b5
00000230: d41f 7fb7 7976 bcac c5b8 04bd 57e4 64b8
00000240: c491 d7bb ee9e 013d 0e1a c53d 7aba d2ac
00000250: 7000 5abc ccc9 0db4 d94f 3fac ea7d deba
00000260: 4530 0fb4 2a83 bbb5 9af3 59bb ebea 073e
00000270: 87e5 5fbb 65e8 6eb2 1cc0 41b8 3bcb 4eaa
00000280: 48d5 a9b9 b6dc a9b5 fb33 51b1 4479 2fbc
00000290: d8f1 f4ae cd34 d9b5 0f81 22ad 1ff3 b23b
000002a0: f732 b692 4769 d2aa 9fdd 20bc 6c36 55b9
000002b0: ba05 47bc c4fd 01ab aefd 9fb7 2d2f b8ad
000002c0: cfde a03c 1900 0080 4460 c13d f2d9 88b7
000002d0: e4ca a033 4917 623d 092d a43c d258 3a3d
000002e0: 2968 20bc ab08 0000 3acf b23d df05 e7b3
000002f0: e008 9a3b 736d 0fbb 45a7 6ab5 3c81 3cba
00000300: 01bd c2b3 e200 2e3e 02e6 7dba 78f4 1bb7
00000310: fc42 aaaf b692 12b1 0bf8 e5b1 7654 ceae
00000320: 1e6d 1ab9 9369 e8b7 8281 3f90 0452 b9b2
00000330: aefa 7083 1a90 f9ba 3467 4bb7 e3e8 542a
00000340: fa1a f7bc 73be dab6 3653 16b1 4b2f f3ba
00000350: 65f5 e19b f0c1 4aba 2e9e 3aba fab9 8ebc
00000360: e912 98ac d9b7 e8a7 29b6 703d dae2 e3b8
00000370: 7e02 84b2 6265 75af 7f39 1dbc dc0c 0080
00000380: 8b4c 943a f09c 9d3d 5f35 10bb de83 4a3d
00000390: a5af a1a4 d64a 0b3d b6e8 84b0 9537 4aa2
000003a0: e1ff 3eb6 bb39 5c3d 577e a7a8 dc33 84bc
000003b0: b33b 95b8 b45e b03d 9675 543d df1f 3abb
000003c0: 8242 1db1 6087 c815 809d 33a6 ca53 a6b1
000003d0: da64 383d c862 643b 4fd4 02b7 ea14 0000
000003e0: b9bf 61b9 5638 bfb4 b616 ac3b 67ee a7af
000003f0: 372a ceb4 f750 51bc a205 4b3d 32a9 143e
-0.0029959176 -0.00048359376 0.031161387 -0.021680567 -0.00035553914 0.0044644037 -3.4903255e-08 -5.2196283e-05
-6.1169806e-12 -0.00840705 0.01423393 -1.2884325e-15 -7.0872844e-08 -5.3560627e-09 -0.00714846 -0.003629349
-0.031087227 -0.013169711 -0.032335065 -1.409783e-22 1.6257377e-28 -0.0020019317 -0.033733707 -0.044379286
-0.0005310624 -0.0014678008 -2.641997e-07 -5.500321e-14 0.042083476 -2.1515758e-07 -1.9976838e-07 -0.0011436238
0.0426996 -1.0692639e-08 1.357351e-25 -1.335307e-07 0.027242595 -1.6917764e-10 -1.3209009e-05 -0.0079952
-1.681016e-07 5.7753916e-19 -2.8115195e-05 -7.1569566e-06 -2.8989984e-07 -8.2101874e-24 -8.616198e-10 -8.0969895e-37
-0.010280253 -0.006544906 -1.6878215e-05 0.15283844 -3.075819e-05 -3.3174576e-09 -0.028215991 -0.0010013528
-0.006322485 -2.9409054e-07 -1.2398506e-12 -0.0051635075 -4.1926899e-07 -0.00031298227 -6.9146594e-10 -8.8836816e-05
-8.678018e-08 0.065131895 -0.026063152 -0.036138352 0.039968576 -0.0031339698 -0.004834302 -2.5179826e-05
-0.0140831955 -9.212718e-06 -7.726762e-08 -0.038538802 -0.0018516965 -5.6954025e-10 -3.1085394e-29 -0.0027898047
0.029676601 0.031455692 -7.102359e-07 -0.0052199424 -6.4032954e-12 -5.4134577e-09 -0.017685262 -3.3983705e-11
-3.439964e-15 0.08484975 -0.0012530917 -1.8923334e-08 3.361661e-27 -4.4711648e-10 -3.92662e-07 -0.0003796441
-9.830408e-12 1.7333165e-09 -1.3466297e-08 -1.1126459e-06 0.058649123 0.33052078 -2.684967e-12 -0.003621687
-2.549699e-12 -9.7829925e-06 -2.826978e-12 -1.1166252e-08 -2.2351185e-10 -3.1565818e-05 -1.7828574e-09 0.052042507
-1.1093996e-09 -0.0003023099 0.07255967 -1.9267722e-07 -0.055267498 -1.0352682e-06 -0.014023996 -0.0023826952
8.8872475e-06 -5.892e-42 -0.0023879227 0.13577642 -2.1309691e-07 -2.4891272e-12 -0.039994884 -0.0029028992
-0.0675968 -4.0628076e-10 5.6545987e-06 -0.01954231 -1.1341598e-08 -1.3646373e-13 3.991344e-12 -1.2273645e-09
-0.0011857304 -1.0484104e-06 -5.106432e-13 -7.326165e-07 -1.5206595e-05 -5.3564345e-12 -0.032402772 -5.4572094e-05
-0.006578656 0.031645708 0.0962411 -5.989262e-12 -0.013305768 -1.3205062e-07 -2.7187057e-12 -0.0016974781
-1.3335473e-07 -1.397076e-06 -0.003325677 0.13273208 -0.0034163909 -1.3906264e-08 -4.61937e-05 -1.8366985e-13
-0.000323931 -1.2655717e-06 -3.044305e-09 -0.010710064 -1.11387954e-10 -1.6183127e-06 -9.237291e-12 0.005461111
-1.1498379e-27 -3.7376544e-13 -0.009818464 -0.00020333537 -0.012147361 -4.6182177e-13 -1.9072406e-05 -2.0939328e-11
0.019637493 -3.5e-44 0.09442189 -1.6313952e-05 7.487486e-08 0.055197988 0.020041006 0.045494862
-0.009790459 3.11e-42 0.087309316 -1.0757844e-07 0.004700765 -0.0021885305 -8.74152e-07 -0.0007190888
-9.0682086e-08 0.16992524 -0.0009685458 -9.29564e-06 -3.0970415e-10 -2.1329192e-09 -6.6929764e-09 -9.382799e-11
-0.00014727234 -2.7705717e-05 -3.7767877e-29 -2.1574131e-08 -7.0817427e-37 -0.0019040138 -1.2123772e-05 1.8910181e-13
-0.03016423 -6.5190775e-06 -2.1875173e-09 -0.0018553523 -3.738171e-22 -0.00077345874 -0.00071189075 -0.017422665
-4.3221993e-12 -6.4592263e-15 0.05876747 -0.00010866458 -1.5367956e-08 -2.2318639e-10 -0.009596228 -4.613e-42
0.0011314315 0.07695949 -0.0022004468 0.049442165 -7.0120173e-17 0.034006916 -9.670404e-10 -2.740553e-18
-2.8461147e-06 0.053765994 -1.8595516e-14 -0.01613801 -7.1159935e-05 0.08611813 0.05186995 -0.0028400344
-2.2884312e-09 8.099294e-26 -6.2316553e-16 -4.8407616e-09 0.045018055 0.0034848917 -7.798036e-06 7.503e-42
-0.00021529094 -3.5617512e-07 0.005251731 -3.0546518e-10 -3.8401205e-07 -0.012775651 0.04956592 0.14517668

hidden2.weight f4 [256, 256]
00000000: 811d c5bc 3cce 82ba 4d87 0d3e 3e6c b0bc
00000010: 4fb2 0dbb 4a45 62bb 9745 f0ba 0456 603a
00000020: 73d0 d3b7 a281 21ba d811 1d3c ee0f 8630
00000030: 52b0 c1b6 1c83 94b8 2989 80bc 829b 14bd
00000040: b631 ffbb 98b8 8d3c 00b6 1cbd 249b f035
00000050: 4210 4faa f4af 70bb 272a 813c 5d9b 24bd
00000060: 00c8 3bbb 9e0c bbba aa15 823b 1a32 982e
00000070: 641f e63c aae4 3db8 66f3 8739 dffd b7bb
00000080: 35b0 24be 3b71 10ad 98db f531 d5dd a9bb
00000090: 14b6 8abd c352 0335 daaa 22ba b80f d8bb
000000a0: e0ad b334 af68 76b3 1101 daba 42ad cd26
000000b0: a67c 49ba b718 cdb0 a149 8435 3bed 0fa2
000000c0: efcc 433d 90ad ac3c 8fee 743a 212b c7bc
000000d0: a5d9 7c36 6fc6 47b9 268f fa3a 7dd6 9eb9
000000e0: a007 7bb9 593b a1b7 4343 30b5 85c4 5f3c
000000f0: 36e0 97b8 bc4e 5d3c 38d7 aeb7 f459 08bc
00000100: 28af f737 a0cf 06be 7b42 96bc 768c 993c
00000110: 8130 8dbc ce9d f9ba 2c7d 8e3d 3bda 9fb5
00000120: 178f 54bb 18e1 663a 50a6 11b5 fb06 ad3c
00000130: e6d7 153b b3fa e1b7 5a54 86aa a30e 5fbe
00000140: f682 8b3d 4306 23bd b9ae ac37 fe4f 02bc
00000150: 378c e036 8022 5339 adfe ddbc c6bc b132
00000160: e5d0 3134 a9c0 353e 90e0 8b3b 32a5 1f33
00000170: 1f17 3eb2 2c83 4f36 8f61 8038 4174 21bc
00000180: dcbf 5ab8 0a3f 26b4 a592 5c31 2c6e a1b9
00000190: 122a 8d3d 15d2 413e 6d8f 8439 be7f af3c
000001a0: 3ae7 cfa7 4cd1 5138 0646 bd34 dea2 12b9
000001b0: e40b 62b7 eb7e aa39 0586 d4b7 aa91 20bd
000001c0: 8795 0938 3921 00b9 c7eb cbbd c05d 0fba
000001d0: d779 9b3c b00e 95b4 895f 5cbd 29b1 3abb
000001e0: 61a3 cbb9 f27b 24ad e7cd c9b9 e1a3 9d3d
000001f0: d023 2c3a be2e c3b7 2ca1 67bd aa17 87bc
00000200: 2425 8aba d727 053a ed1c 4cb8 ee27 933c
00000210: 8322 4f38 94ab f437 ff9b 7335 a27b b72f
00000220: fd37 02bc 9ff1 54bb 92a7 a3a8 f698 0bb1
00000230: ca22 a83a f53f 15b0 8af9 f9bc e17d 98bb
00000240: e284 2bbc f91d 95bd 1162 a93d 3b91 2b35
00000250: d39b 65bc 4af6 9db7 4134 7fb4 4c12 3cba
00000260: 08fe d0b3 0a2f afb9 2d83 8bbb 2e54 33be
00000270: 95f0 b1bc 8c23 5e38 3e59 d0bb 8951 20b3
00000280: be53 d93b 7e0f 1e35 8e53 22b5 8f38 a5bc
00000290: b72d 5d22 2001 22b8 0f59 cd32 b195 a3bd
000002a0: 912a 92ae a3c2 8d33 d6ed 103b 7b5f 87b7
000002b0: 0877 84bb bcd6 8ea3 dcf5 1bb9 7108 97b5
000002c0: 9fc8 433d 8512 91a4 55f1 b3bd d099 01b8
000002d0: 2b15 f9b1 1761 513d dc06 0d3e a45c 9fbc
000002e0: db1e debd 858c a8aa f754 963c 12ff 8ab4
000002f0: ccee edbd 751e 3dbb 0465 dcb9 d4f0 173a
00000300: 88a5 baba 733e 1bbe 3d02 cd3a 7e0b 21bb
00000310: 127b 5fb0 eb68 79ba 29b0 1232 5ed2 a732
00000320: 6dfb 12bc 8e2b b739 26d7 9632 b3f4 1ab2
00000330: 6106 38b4 af9f 0dbc 7b1a 003c 2a29 2caa
00000340: 7690 38bd 3a2f 2eba 4c44 93ba 8665 e9b9
00000350: 94f6 8630 caef 8f3a 9098 b73a 5761 81bc
00000360: 1232 3336 d40e 1934 d3c5 a33d 256b e03b
00000370: 32b2 cc37 563f 46ba 5149 6bba d121 0000
00000380: 318c 7cb9 d51b e63d 00b3 e53a 4ecb b0bd
00000390: 3298 cd37 206f 5abd fb34 a6b7 c1c3 6bb6
000003a0: 682b 88ba 2b22 e0bd 4f91 90b5 967c 80ba
000003b0: 4303 5db9 82fc 58bc ee98 0fbe 6092 debc
000003c0: 1371 c6b5 2689 d924 14bb 90b4 1522 53ba
000003d0: 7f2c f2bc aafe e8ba 2308 0bb7 4202 0080
000003e0: 8986 b13a 2c36 e5b9 e9b6 563a 8de3 b3b5
000003f0: d642 6a34 8633 c0bb 5a6c 5e3d 30ba 313d
-0.02406192 -0.0009979676 0.13821144 -0.021535989 -0.0021621173 -0.0034526163 -0.0018331286 0.0008557739
-2.5250227e-05 -0.00061609794 0.009586774 9.754311e-10 -5.7723746e-06 -7.081611e-05 -0.015690403 -0.036281116
-0.0077879084 0.017299935 -0.038259506 1.7926545e-06 -1.8390934e-13 -0.003672597 0.01576717 -0.04018723
-0.0028653145 -0.0014270728 0.0039698677 6.9210596e-11 0.02809114 -4.527407e-05 0.00025930553 -0.0056149806
-0.16082843 -8.2105945e-12 7.1554034e-09 -0.005183915 -0.0677301 4.8921737e-07 -0.00062052684 -0.0065936707
3.346786e-07 -5.7371548e-08 -0.0016632398 1.4271694e-15 -0.00076861156 -1.4922737e-09 9.856195e-07 -1.9505703e-18
0.04780286 0.021078855 0.00093434093 -0.024312558 3.7677612e-06 -0.00019052041 0.0019116148 -0.00030295915
-0.00023940066 -1.9220332e-05 -6.566299e-07 0.013657694 -7.2420036e-05 0.013507541 -2.0842635e-05 -0.008322228
2.9526258e-05 -0.1316514 -0.018342247 0.018743735 -0.017235043 -0.0019044222 0.069574684 -1.1909937e-06
-0.003243392 0.00088073453 -5.4258726e-07 0.021121493 0.0022864281 -2.6938831e-05 -2.3861712e-13 -0.21782927
0.06812088 -0.039800894 2.058536e-05 -0.007953642 6.6920434e-06 0.0002013538 -0.027098978 2.0691356e-08
1.6560405e-07 0.17749275 0.0042687133 3.7170317e-08 -1.1064713e-08 3.0921756e-06 6.121687e-05 -0.009854377
-5.2153933e-05 -1.5482888e-07 3.2097571e-09 -0.00030790397 0.0689279 0.18927796 0.00025283862 0.021423217
-5.7704738e-15 5.0024406e-05 3.5254942e-07 -0.00013984318 -1.3473418e-05 0.00032519488 -2.5334777e-05 -0.039201416
3.2802604e-05 -0.00012219408 -0.0995708 -0.0005468987 0.018978996 -2.77641e-07 -0.053802047 -0.0028486943
-0.00038840904 -9.349842e-12 -0.00038491117 0.07697273 0.0006566616 -2.3267577e-05 -0.05655019 -0.016490776
-0.0010539633 0.0005079484 -4.866433e-05 0.017963376 4.9384787e-05 2.9166964e-05 9.075156e-07 3.3375352e-10
-0.007947919 -0.003249265 -1.8169307e-14 -2.031411e-09 0.0012827751 -5.429677e-10 -0.030514497 -0.004653678
-0.010468693 -0.072811075 0.08270658 6.39138e-07 -0.014014202 -1.8830546e-05 -2.3767736e-07 -0.00071743573
-9.731963e-08 -0.00033413648 -0.0042575807 -0.17512581 -0.021721164 5.296203e-05 -0.0063582947 -3.732706e-08
0.0066322973 5.888213e-07 -6.047129e-07 -0.02016857 2.9975286e-18 -3.8624858e-05 2.390564e-08 -0.07987536
-6.6468726e-11 6.6012284e-08 0.0022114418 -1.6137716e-05 -0.00404251 -1.5486614e-17 -0.00014873542 -1.1252833e-06
0.04779875 -6.29151e-17 -0.08786265 -3.0899246e-05 -7.2492603e-09 0.051117983 0.13772148 -0.019453354
-0.10845729 -2.99403e-13 0.018351061 -2.589009e-07 -0.116178125 -0.0028857265 -0.00042036932 0.0005796079
-0.0014240006 -0.15160541 0.0015640926 -0.00245735 -8.130182e-10 -0.000951423 8.538373e-09 1.9537023e-08
-0.008971077 0.0003493693 1.7560136e-08 -9.019618e-09 -1.7138656e-07 -0.008644029 0.007818813 -1.529095e-13
-0.045059644 -0.00066446105 -0.0011235564 -0.00044516864 9.819865e-10 0.0010981497 0.0014007259 -0.015793486
2.6702223e-06 1.425463e-07 0.07996716 0.00684871 2.4401674e-05 -0.00075625384 -0.00089754636 1.2131e-41
-0.00024084818 0.11235777 0.001752466 -0.08632527 2.4508776e-05 -0.053328633 -1.9813413e-05 -3.5131673e-06
-0.0010388913 -0.10944017 -1.0771126e-06 -0.0009802755 -0.00021077417 -0.013243796 -0.14023182 -0.027169406
-1.4785059e-06 9.434109e-17 -2.6958207e-07 -0.000805409 -0.029562233 -0.0017776091 -8.28694e-06 -8.1e-43
0.0013544123 -0.00043718645 0.0008190708 -1.3402765e-06 2.1817263e-07 -0.005865517 0.05430255 0.043390453

hidden2.bias f4 [256]
00000000: 918e 1b3e 2d09 0cb8 4b3f 043e 257c edb5
00000010: e1e6 4cba 6e17 e33c 3f26 b1ba 5170 453d
00000020: 8802 fc3d 3abe 85bc 9545 753d 722a c03d
00000030: 1a9e 8bba e8ca 06b6 f88b 40b8 85dc 493c
00000040: b88d 0d3d 38c2 093d 03ca b53c 4fc4 df3b
00000050: 61dd ad3d 242e 253d 43a0 ff3d a176 9f3d
00000060: 1027 30bb 7add 85b9 550f b33d c4b4 c93c
00000070: 6d47 aeb8 2c67 7a3d 9c7f 4d3d 0ceb f83d
00000080: 658d e6b8 38bd 593a b9fc 18b9 cafd 9bb4
00000090: 59c1 a33d c00e 453c 2540 9c3d 4354 8eb7
000000a0: 86bc 033d 0244 88b6 a46b 8abd 4c57 a73d
000000b0: 4e37 e7b7 f361 dd3c a18d ff3d ce60 4b3a
000000c0: 9b29 0c3e ed13 953d d9e8 293d 5773 15b8
000000d0: 9717 b73b a608 84b9 2009 34ba 9a7e 4ebc
000000e0: 2a42 ecb8 a2b6 57b8 3a6e 23bb ca94 efba
000000f0: 9c61 85b3 0813 77b8 bf17 19bd 012c 93b9
00000100: bfc0 a03d be02 98bb 6f84 733c e325 12ba
00000110: cd99 583d 910d babb 6e99 623d 75fd 20af
00000120: ccfc 393b 0cf8 e13d 514b 1bbc c0a0 0b3d
00000130: fdec 86b4 3e25 dd3d 33aa 6cba 1ce3 ea3d
00000140: d597 233d 7997 2fbd 2cac 08bc 2135 413d
00000150: 50f0 213d 19e5 133d 1c9e de3d b567 fcb6
00000160: 3e49 743d 9e20 b93c 67ca e5b1 c714 86ad
00000170: 12a2 27bc b2cb 563d 8ba2 553c dcb5 913c
00000180: 5529 903d 05a0 2d3d 6f02 4cb3 6e53 96b3
00000190: b4ab eab7 cbd3 a1b1 35c8 ea3d eccd 55bd
000001a0: 9017 883d b9ad cdba bb40 fd3d 4282 063e
000001b0: 2ba3 d9b5 0f0d 19af 2a3e 5c3b 5157 453b
000001c0: df21 b43d 3610 9d3d 4267 4eb6 fc97 a13d
000001d0: 9015 79bc 3be3 313c f5db 533d c413 8139
000001e0: 590a 4cac a92b 6ab7 a771 c33d cbd9 2d3d
000001f0: f192 173a 1253 853b c2da b3bc d161 363d
00000200: 411c ae3d 5e14 93b3 2da9 033e d83b 63b7
00000210: b799 b2b9 5abc 1db7 8d72 40bd d1cf 5bb9
00000220: d2e1 e0b8 b0a5 04b6 ca1b c93c b006 a9b5
00000230: 616d a43d c554 1c3e 6df8 2cbb c0d1 d7ba
00000240: eb5c bf3d cf9b 3c3d 3049 5cb3 a7ba de3c
00000250: 7d73 e9b5 2b3b c93d 44a0 1db9 c83c f33b
00000260: 53c0 1a3b 6894 773d 0c1a 3e3d 2aaf 83b5
00000270: 3518 00b7 a8e5 b93d 1fc8 21b9 d20f 9db9
00000280: 1299 87b9 5d40 3d3d 00ee be3d b937 a43d
00000290: 54b3 07ba a1df b03d c380 3b3d 97ee 02b0
000002a0: b618 93b2 b942 b43d d345 fcb4 4005 b7bc
000002b0: 6aaa 363c 522d 2e3d 4767 48bd a0a5 123e
000002c0: 8d21 44bc e821 823b 06d6 133e e0f1 82ba
000002d0: 7bfe 873d 7716 a53d 5d53 9fba cdce b73c
000002e0: 7ded bcb5 4495 6c3d 388e 21b7 7e78 703c
000002f0: 7191 a03d 4361 963d 5028 2e3d 812d 0fbc
00000300: 2478 2fb8 f607 01b8 309f 68b9 a736 21bc
00000310: 590d ba3d 41c5 13ba 193b 19b6 70f1 01b9
00000320: 55a0 fb3b 26b9 7bb3 37e3 93b7 34b4 f83d
00000330: c1c8 8f3d f24b b13d 1023 ba3d 9f44 c0b5
00000340: 8fd1 1eb8 b494 dd3d 9685 a33d 38c0 283c
00000350: 4c69 82b0 3715 fcb5 d480 ae3d 1a3b a93d
00000360: eca5 ad3d 1b52 d03c 0d54 153c cd76 e4bc
00000370: 1dbb 15bc 04fc 99b4 dfd4 d63a 0f7f 873d
00000380: 06ff e0b4 44c4 a23c ebb2 cb3d f7e9 a33d
00000390: 0d48 f0b7 c179 333e 673b a63d 2c36 383d
000003a0: 6340 31bb 2df8 43b9 ea0a d2b8 ffa0 72b0
000003b0: c2c9 023d 6130 d03d c820 b83d 5aaa 453d
000003c0: 5f73 433d 7883 9f3d 3e2e 063d f431 72b2
000003d0: 79e3 063e f2a2 02bd 794a 123e 88ae 963d
000003e0: 1bdd 7ab8 a20f 153c a361 ad3c 5f08 97b9
000003f0: 869e 00a7 41d8 d03b 8cb5 9d3c a966 393d
0.15191104 -3.3387147e-05 0.1291477 -1.7694007e-06 -0.0007816386 0.027721133 -0.0013515427 0.048202816
0.1230517 -0.016326059 0.05988081 0.09383096 -0.0010651976 -2.0085663e-06 -4.5906723e-05 0.012320642
0.03455898 0.033632487 0.022191053 0.0068288217 0.0848949 0.040327206 0.12481739 0.077862985
-0.0026878752 -0.0002553275 0.08743159 0.024622329 -8.310271e-05 0.06113355 0.050170526 0.12154207
-0.000109935914 0.0008306089 -0.00014589996 -2.9055656e-07 0.079958625 0.012027442 0.07629422 -1.6966957e-05
0.03216221 -4.061033e-06 -0.06758812 0.081709474 -2.75631e-05 0.027024245 0.124781854 0.00077582605
0.13687746 0.07279191 0.041481826 -3.5631787e-05 0.005587529 -0.00025183446 -0.0006867815 -0.012603426
-0.00011265681 -5.1430085e-05 -0.0024937526 -0.0018278596 -6.21105e-08 -5.8907113e-05 -0.03737616 -0.0002807081
0.078492634 -0.004638999 0.014863118 -0.00055751036 0.05288105 -0.005677887 0.055322103 -1.4641961e-10
0.0028379438 0.11033639 -0.009478406 0.03408885 -2.5131877e-07 0.10798119 -0.0009028047 0.11469099
0.03993972 -0.042869065 -0.00834183 0.04716981 0.03953582 0.036107156 0.10870001 -7.5222583e-06
0.05964016 0.02259856 -6.6877877e-09 -1.5243263e-11 -0.010231512 0.052440353 0.013039242 0.017786913
0.070391335 0.042388935 -4.7499665e-08 -7.000095e-08 -2.797493e-05 -4.7097948e-09 0.11463968 -0.052198336
0.06645119 -0.0015692032 0.12365862 0.13135627 -1.6215248e-06 -1.3919908e-10 0.0033606389 0.003011186
0.08795523 0.076691076 -3.0756496e-06 0.07890317 -0.015202895 0.010857399 0.05172344 0.00024619524
-2.8995888e-12 -1.3957652e-05 0.09543162 0.04244403 0.0005782089 0.0040687406 -0.021954898 0.04452688
0.08501483 -6.848926e-08 0.12857504 -1.3544188e-05 -0.00034065332 -9.401783e-06 -0.046984244 -0.00020962885
-0.00010723215 -1.9765976e-06 0.024549384 -1.2593428e-06 0.08028675 0.15266712 -0.002639319 -0.0016465709
0.093438946 0.04604703 -5.1289305e-08 0.027188612 -1.7393464e-06 0.098257385 -0.0001503239 0.007423017
0.002361317 0.060444266 0.04641156 -9.81124e-07 -7.635031e-06 0.090770066 -0.00015428707 -0.0002995716
-0.00025863253 0.04620396 0.09322739 0.08018441 -0.0005176563 0.08636404 0.045777094 -4.763278e-10
-1.712429e-08 0.08801789 -4.6989462e-07 -0.02234137 0.011149028 0.04252369 -0.048926618 0.14320993
-0.01197089 0.003971327 0.14437112 -0.0009990297 0.06640335 0.080609255 -0.0012155581 0.022437477
-1.407621e-06 0.05775954 -9.629461e-06 0.014677165 0.07840241 0.0734277 0.042518914 -0.008738876
-4.183514e-05 -3.076341e-05 -0.00022184546 -0.00983969 0.09084577 -0.0005636998 -2.2833176e-06 -0.00012392341
0.007679025 -5.8608883e-08 -1.762957e-05 0.12143746 0.07020713 0.086570635 0.09088719 -1.4325086e-06
-3.7865302e-05 0.108193785 0.07984464 0.010299735 -9.488672e-10 -1.8781637e-06 0.08520666 0.08263226
0.08478913 0.025429776 0.009114278 -0.02788868 -0.00913885 -2.8681836e-07 0.0016390345 0.066160314
-4.1908805e-07 0.019868977 0.09946235 0.0800361 -2.864378e-05 0.17526914 0.08116799 0.044973537
-0.0027046434 -0.00018689102 -0.00010015613 -8.8267876e-10 0.031930692 0.101654775 0.089906275 0.048258163
0.04771745 0.077887475 0.032758944 -1.4097612e-08 0.13172711 -0.031893678 0.14286222 0.07357508
-5.9810565e-05 0.009097965 0.02116472 -0.000288072 -1.7849504e-15 0.0063734357 0.019251607 0.04526392

hidden3.weight f4 [10, 256]
00000000: a0e9 2abe 37c3 a03a bf85 a8bc d753 0a3b
00000010: 79e3 623c cea5 1b3d 8115 0ebc 795a d13d
00000020: cee0 a53e 196a 3d3d d002 77be 0d74 91be
00000030: ff0a ab3b aeba ee37 8add 1ab8 022c 303e
00000040: e7bf 56be 9b8c 22be 6d6f 19be 54eb 07bd
00000050: 2286 613d cbbf 8fbe 6675 553c 4e53 4e3c
00000060: 3c6d e7ba 4d10 273c 7d83 06be 7da7 67bc
00000070: 8a8a 2fbb d89f b8bd 0645 183e 7ee9 893e
00000080: c8b6 d23b b530 10be bec4 ad3a 986c 8637
00000090: 58a1 9bbe 9dc1 76bd da9c 51be 5222 78b9
000000a0: d570 de3c dea3 4535 9dc6 903c 6547 03be
000000b0: 108c fcb6 67ad 4d3d 5868 aabe 9a14 35be
000000c0: 2d23 b33d 33c9 babe c19a 9bbd c984 a738
000000d0: 853a 273e bfe3 d7bb 364a a6ba 1031 57bc
000000e0: fa20 223b 37cc 493a cf21 0ebc be6e e1b9
000000f0: dc79 a3b6 1b2d 963a 7e0e 783d c00d b8b9
00000100: 56ea 143e f174 be3b 2046 d4bd df1a 0e3b
00000110: d293 35be f8d3 70bb d719 80bd 4e66 9237
00000120: 321b 20be f949 ff3c eced a5bd c888 9ebd
00000130: 3228 bfb6 b593 633e 97fa c33a bb54 133e
00000140: 3f96 1a3d 9ced 3fbd 5b13 4fbb 5d76 abbd
00000150: 879e 533e 2621 19bd ef45 033e fa2b 9eb8
00000160: a54c 91ba 4242 a9bd 0848 31ba 69ac d4b5
00000170: a1d5 72bd 5893 bd3b c706 ebbc 9262 2ebd
00000180: 9b81 1b3e 5d56 93bc 8b46 b5b9 31e0 7539
00000190: ec30 8a39 c6f0 0439 7e43 21be 3544 1ebd
000001a0: e08b 84be 9cf6 8c3b 0013 a53d b21c a93c
000001b0: 20fb 2f36 5b32 9db6 c742 a1bc 8381 25be
000001c0: 610e 933e 9215 5abe 0b74 23b9 c1d2 81be
000001d0: a461 ec3c 5368 6d3c 045f 213e c27b 6ebb
000001e0: 6ff7 5bb3 ee12 893a e58e ed3d 94cd 01be
000001f0: ecfc d7bc 74c2 d0bd e249 403c 62df 5ebd
00000200: c65c 67bd f192 0637 7769 cdbd 3955 22b7
00000210: e5f3 353a ab5c 0038 f095 23bd e454 b3bb
00000220: 1118 86b8 7a6e c9b6 1f47 51bd 0e06 86b8
00000230: 29e0 16be 88f1 343e 7032 13bc debb 84bb
00000240: b8b6 98be b295 27be b363 40b9 ad5a d0bc
00000250: 4a30 2437 e681 4fbe 14fe 9d39 442e fbbd
00000260: 6986 19be 921e 03be 474c 843b 667c 1639
00000270: 7384 1d36 91dc 3e3e 1c31 2c3a a32f d0ba
00000280: 344c 613b 7659 d93e 1cef 1f3e ac25 4dbe
00000290: fa7e b2ba 3372 4c3e 660d 953d 7f4f 18b6
000002a0: c4f8 e238 54a7 ae3d 815e 5f38 f1b8 b8bd
000002b0: 79de 8cbd d74b 983d 7831 a0bd 2800 6ebe
000002c0: 7430 153c 446c 1ebe eeb1 233e a904 5abb
000002d0: db0a aebd dfb5 323e 8cdb d6ba 800c dabd
000002e0: 9587 35bb b1fd 133e 78a7 b4b8 e7fc bdbc
000002f0: 64c4 a73e a1f8 933e 3060 edbd eb81 97bc
00000300: f4e2 063a 6c38 a438 3cf8 8bb8 3d37 8c3c
00000310: 8351 23bd 5996 333c 2f63 1635 2000 f4b3
00000320: 9078 b83d 7bde b3bb 73b9 b0b5 3764 893e
00000330: 9d54 01be 89a1 1fbd c633 fd3d 4ff7 76b9
00000340: a02d 7d39 ab84 923d b540 94be e3d4 a0bc
00000350: 0987 b4b9 99c7 06b9 d35d 8bbe eafa 303e
00000360: 4247 d8bd 8a05 68bd 0590 153d a174 52be
00000370: 6a7b c7bc 3c69 cbb8 9bb8 86bd 1b01 58be
00000380: 0130 1739 a9f9 3c3d 4b4c 233e 856e efbd
00000390: fe30 10ba b30e 2e3e 1af3 2d3e 675b 8dbc
000003a0: c425 0fbc d643 bdba ecd9 8cba 0140 1239
000003b0: 111c 55bd 2c3c 353e 7943 863d 9fed 05bd
000003c0: f457 cdbd ca20 b9be da1f 0abe 1caf 1138
000003d0: 5cbf a33c 499c 6c3d a278 a9be 84e7 443e
000003e0: 4d24 7f3b 5313 cbbd 1d9d dabc 6ab6 b6bb
000003f0: ba4f e634 ee1d a5bd ded6 4ebe 1f6e 553d
-0.16690683 0.001226521 -0.020571588 0.0021107101 0.013848179 0.03799992 -0.008672119 0.102223344
0.32398075 0.04624376 -0.24122167 -0.28408852 0.0052198167 2.845874e-05 -3.6922786e-05 0.17204288
-0.20971642 -0.15873949 -0.14983912 -0.03318341 0.05505956 -0.28076014 0.013028478 0.012593104
-0.0017656456 0.0101967575 -0.13136096 -0.014139053 -0.0026785457 -0.09014863 0.1487008 0.26935953
0.0064304806 -0.1408108 0.0013257486 1.6024613e-05 -0.30396533 -0.060243238 -0.2046999 -0.00023663908
0.027153412 7.3626677e-07 0.017672831 -0.12820204 -7.5264907e-06 0.050214197 -0.33282733 -0.1768364
0.087469436 -0.36481628 -0.07597876 7.987914e-05 0.16330917 -0.0065884287 -0.0012686912 -0.013134256
0.0024738894 0.0007697972 -0.008675053 -0.00042997854 -4.871965e-06 0.0011457534 0.060560696 -0.0003510546
0.14542517 0.0058122803 -0.10364938 0.0021683497 -0.1773217 -0.0036747437 -0.062549286 1.7452196e-05
-0.15635374 0.031163203 -0.081020206 -0.07740933 -5.696923e-06 0.22224315 0.0014952001 0.14387791
0.037740942 -0.04685746 -0.003159723 -0.083721854 0.20665942 -0.03738513 0.12819646 -7.5422184e-05
-0.0011085464 -0.08264591 -0.00067627477 -1.5845409e-06 -0.059285764 0.005785387 -0.028689755 -0.042574473
0.1518616 -0.017985517 -0.0003457557 0.00023448539 0.0002635786 0.00012678196 -0.15748402 -0.038639266
-0.25887966 0.004301859 0.080602646 0.020643566 2.6223206e-06 -4.6848268e-06 -0.019685162 -0.16162686
0.28721908 -0.21297291 -0.00015588121 -0.25356105 0.028855152 0.014490205 0.15758902 -0.0036389683
-5.121495e-08 0.0010457912 0.115995206 -0.12676078 -0.02636572 -0.10193339 0.011736365 -0.054412253
-0.05648496 8.021235e-06 -0.100298814 -9.675795e-06 0.0006940945 3.0603882e-05 -0.039937913 -0.0054727662
-6.394101e-05 -6.003128e-06 -0.051093217 -6.390746e-05 -0.14733948 0.17670262 -0.008984193 -0.004050716
-0.29826903 -0.16365698 -0.00018347688 -0.025433863 9.786405e-06 -0.20264396 0.00030134676 -0.12264684
-0.1499268 -0.1280463 0.0040374133 0.00014351457 2.3471919e-06 0.18638827 0.0006568597 -0.0015883337
0.0034377696 0.42451066 0.15618557 -0.20033902 -0.0013618164 0.19965439 0.07277946 -2.2696038e-06
0.00010822856 0.08528009 5.3255357e-05 -0.0901965 -0.06878371 0.0743634 -0.078219354 -0.23242247
0.00910579 -0.15470988 0.15985844 -0.0033266938 -0.08498164 0.17452191 -0.0016392334 -0.106469154
-0.0027699221 0.14452244 -8.614262e-05 -0.023191882 0.32767022 0.28900626 -0.11590612 -0.018494567
0.0005145513 7.830639e-05 -6.674274e-05 0.017116183 -0.039872658 0.010961139 5.6023686e-07 -1.1362158e-07
0.090073705 -0.005489168 -1.3166995e-06 0.2683427 -0.12629934 -0.03897241 0.123633906 -0.00023552518
0.00024144957 0.07154211 -0.28955618 -0.019632762 -0.00034432884 -0.00012853592 -0.2722002 0.17283216
-0.10560466 -0.056645907 0.0365143 -0.20552303 -0.02435084 -9.699396e-05 -0.065781794 -0.21094172
0.00014418365 0.046136532 0.15947072 -0.11691002 -0.00055004645 0.16997795 0.16987267 -0.017255498
-0.008737031 -0.0014439772 -0.0010746098 0.00013947488 -0.05202872 0.17698735 0.06555838 -0.032697316
-0.10026541 -0.3615783 -0.13488713 3.4733777e-05 0.019988708 0.057766233 -0.33099848 0.19228941
0.003893155 -0.09915795 -0.026686246 -0.0055759447 4.2898847e-07 -0.08062349 -0.20199153 0.052106973

hidden3.bias f4 [10]
00000000: 05ca ffbd 1858 ed3d 06be 4c3d 38ec 8f3d
00000010: df28 c23d 1bdb 42bd eb3e debd f12b cdbd
00000020: f776 7d3d fff1 6ebc
-0.12489704 0.11589068 0.049985908 0.07027477 0.09480452 -0.047572237 -0.108518444 -0.10018147
0.06188103 -0.014584064
