hw3/DANN_svmn_F.pth (torch_old, 305334 bytes, 10 tensors)

conv1.weight f4 [64, 3, 3, 3]
00000000: fd47 5abc 9a51 463e fa4c bc3e 66ed c7bd
00000010: 1234 3cbc cf21 e63b 07ed d9bd ddc0 70be
00000020: 339d 0ebe 0246 25bc 8070 2d3e f5c7 aa3e
00000030: 0620 4fbd fa16 6a3c 57c7 2d3e b9c5 18be
00000040: 1683 7dbe 049c d0bd 9caa 08bd 4d4c d73d
00000050: 7946 933e 6570 1cbe 1449 b5bd ea37 ef3c
00000060: fa7f 29be 55bd fdbd 3c4b 633c b110 773e
00000070: fffd 933e af77 23be 9dd1 8c3d 4528 ddbd
00000080: 97fc 79be 9008 203d b3ae b03b 5f04 55be
00000090: 8a5e 42bd 0fe9 e83b f3bb 7abd 543a 24bd
000000a0: 3c29 e4bc 721a c8bd 007a 863c ec62 d93a
000000b0: 51bc 8ebd fb1b a9be 1b98 a9be 8e63 4f3e
000000c0: 8d29 96bd 42d0 963d 5849 a33e bb86 dfbd
000000d0: 4f66 a8bd b03a 5c3e b959 bebc d8eb 80bd
000000e0: 8343 11bd d317 53bd f9d3 96bd 978a 55bd
000000f0: 5170 0abd 6853 38bd 916c 38bd f9f3 90bc
00000100: 8c96 4dbd 9a6e b1bc 7f9d 41bd 96ac 92bd
00000110: 17c8 40bd aefb f6bc 9a13 3bbd 320d 29bd
00000120: a885 af3c d383 6e3c ce87 2b3d d269 983c
00000130: d0ab 133c fe26 003d 5796 d73c 0f64 f93c
00000140: 32b3 3d3d 23d7 5dbe 5c7a bcbd 6fa3 48bd
00000150: 464d b4bc 436c 8c3c 8103 ffbc 0cb8 c83d
00000160: 1a28 023e 7922 263c 7370 a2be 489b 68be
00000170: 20f2 51be 3b06 263c 8491 883c 6ea6 b3bc
00000180: 494b 073e 125b d73c 9f0d 213a 5066 75be
00000190: 7b9a 3ebe e044 52bd 6122 463d bf90 f53d
000001a0: 27e7 873d 5980 893e 226f 613e 8bad 1a3e
000001b0: 0a1a 093d bdbc 393e fd8d 193e c2ca febd
000001c0: 1625 ddbd 6a83 c4bd ea15 4a3c 69df 0c3d
000001d0: 817f 40bc d82b f6bd 212c a9bd d1c6 a4bd
000001e0: 8bac 2ebe 4647 2fbe 8dbc 6fbe 82e2 a5bb
000001f0: fd0a 0dbd 9447 f5bd ab93 1a3e d3dc 9e3e
00000200: 59e3 b13e 17e0 51be 98b9 38be 8469 f9bd
00000210: fa49 1fbd 0186 8bbc dbe7 893c 04ff 38bd
00000220: a3d3 95bd 369c a1bd c3ef 29bd 6c36 94bd
00000230: d9e0 b7bd 031f 5ebd e735 a8bd 0325 aabd
00000240: bd92 45bc 341c c7bc 52df c7bc 2e3a ef3a
00000250: c144 68bc 6e77 04bd 5a02 6cbc 4cff 06bd
00000260: 1d50 cfbc 8fa5 f73c 8ad8 cd3c 4d31 693c
00000270: 7aed 163d 2844 1f3d eee8 f13b 2dde b53c
00000280: d39e 4b3c fa24 fd3b 9b4a b5be 3451 dfbc
00000290: 35b9 223e 2145 2fbd ce25 c3bd f7b6 533e
000002a0: d9c4 8bbe 7b47 8e3e fed5 a93d 9572 9fbe
000002b0: 5784 0abd f3b6 683e 29db 55be 123d 6cbb
000002c0: 8f08 c73d fdbf 20be ce8b aa3e 5f8b af3d
000002d0: 857b 973e def6 84be 2cb0 debc f8bd e1bd
000002e0: cf7a 81be ffad 9a3e 4e45 8dbe 67c0 523e
000002f0: a309 f73d 3179 223d ee3b 8dbc 5ef3 04be
00000300: 5dc2 793d 7b1d 50bc 2b00 0bbe 3af6 bf3d
00000310: 0e46 3c3c 1b43 babd 1286 adbb 9120 56bd
00000320: bdc2 a5bd 0d1f c93b 239e 7fbd a0a3 b7bd
00000330: 26be 5c3d 1d84 47bc cce0 28bd dede 57bd
00000340: 18cb 15bc c63b fa3d 5566 81bd dafe 89bd
00000350: 3dcb ba3d 1276 7ebd 41a5 8bbd 67d6 8e3d
00000360: 0fd2 f53d d296 bc3d 728e 98bd a8b6 cb3c
00000370: ab51 55bd 13b0 96bd c452 0d3d 4a18 ff3d
00000380: c8f8 413d 4556 833e 7eea 513e 1681 d0bc
00000390: 0efa 433e d5f4 3f3e 77db b4bd 54b3 533e
000003a0: 81c8 7d3e 1bc4 703d e496 4ebe af89 61be
000003b0: eb04 4bbe 6669 73bd 7743 a2bc 47cc 0cbe
000003c0: eb2e 45bd 507c c9bc 4eb9 36bd d76b 483e
000003d0: 8870 5e3d 73fb c43c 6aaf 66bd 66f0 a33c
000003e0: 4dfa 063d 8719 42bd 263b b0bc 3d07 533e
000003f0: 62ca 393e e190 603d 8eaf 403d d63f 9f3b
-0.013322827 0.19367066 0.36777478 -0.09762077 -0.011487024 0.0070230733 -0.106409125 -0.23511072
-0.13927154 -0.010087492 0.16937447 0.3335568 -0.05056765 0.014287705 0.16970573 -0.14919175
-0.24757037 -0.101860076 -0.03336583 0.105126 0.28764704 -0.1527725 -0.08851829 0.029201467
-0.16552725 -0.12389628 0.013872918 0.24127461 0.2890472 -0.15963624 0.06875918 -0.107986964
-0.24412762 0.039070666 0.0053919195 -0.20802449 -0.04745344 0.007107861 -0.0612144 -0.04009469
-0.027851693 -0.09770669 0.016415596 0.0016585267 -0.06969512 -0.3302916 -0.3312386 0.20252821
-0.07332144 0.07363941 0.31891894 -0.1091437 -0.08222639 0.21506763 -0.023236142 -0.062949836
-0.035464775 -0.051536392 -0.07364649 -0.052134123 -0.03379852 -0.045001417 -0.045025412 -0.01769446
-0.0501924 -0.021659184 -0.04726934 -0.071618244 -0.04706582 -0.030149307 -0.04567299 -0.04127235
0.021426037 0.0145577965 0.04187756 0.018605147 0.009013131 0.031287186 0.026316805 0.03044322
0.046313472 -0.216641 -0.09203026 -0.048983987 -0.022009503 0.017141467 -0.0311296 0.09800729
0.1271061 0.010140055 -0.31726417 -0.22715485 -0.2050252 0.010133321 0.01667095 -0.021929946
0.13212313 0.026288543 0.00061436923 -0.2396481 -0.18613617 -0.051335216 0.04837263 0.11990499
0.06635886 0.26855734 0.2201505 0.15105264 0.0334721 0.18138404 0.1499557 -0.12441017
-0.10798089 -0.09595378 0.012334326 0.034392748 -0.011749149 -0.12020081 -0.0826037 -0.08045734
-0.17058007 -0.17117032 -0.2341177 -0.005062402 -0.034434307 -0.11976543 0.15095393 0.3102785
0.34743765 -0.2049564 -0.18039548 -0.12178329 -0.03888891 -0.017031671 0.01683419 -0.045165077
-0.07315757 -0.07891123 -0.04148842 -0.07236943 -0.08978433 -0.054228794 -0.08213406 -0.08307841
-0.012058911 -0.02430544 -0.02439848 0.0018251592 -0.014176548 -0.03234046 -0.0144048575 -0.032958314
-0.025306756 0.030230312 0.025127668 0.014232946 0.03684757 0.03888336 0.0073825037 0.022200668
0.012428003 0.007725355 -0.35408482 -0.0272604 0.15890963 -0.042790536 -0.09528695 0.20675264
-0.2729862 0.2778891 0.08292769 -0.31142107 -0.033817615 0.2272604 -0.20884384 -0.0036047143
0.09718429 -0.15698238 0.33309788 0.08571505 0.29586425 -0.25969595 -0.027183615 -0.11022562
-0.25289008 0.30210873 -0.27591938 0.20581208 0.12062385 0.03966636 -0.01724049 -0.12983462
0.060976375 -0.012702341 -0.13574283 0.09373136 0.011491312 -0.090948306 -0.0052955234 -0.05227715
-0.08093784 0.0061377347 -0.06240667 -0.08966756 0.053892277 -0.012177494 -0.041230008 -0.052702777
-0.00914266 0.12218432 -0.063183464 -0.06738062 0.09120796 -0.06212432 -0.06818629 0.06974488
0.12002956 0.09208454 -0.07449044 0.02486737 -0.052079838 -0.07357802 0.03450276 0.12455805
0.047356397 0.25651756 0.20499608 -0.025452178 0.19138357 0.1874574 -0.08830922 0.20673877
0.24783517 0.05878077 -0.20174748 -0.22025178 -0.19826095 -0.059426688 -0.01980756 -0.137498
-0.048140448 -0.02459541 -0.044610314 0.19572388 0.054306537 0.024045682 -0.05631963 0.020012092
0.03295355 -0.047387626 -0.02151258 0.2060823 0.18143609 0.054825667 0.047042422 0.0048599048

conv1.bias f4 [64]
00000000: dcf5 0539 7dcf 0db8 0c28 93b6 19fd 4cb8
00000010: 8c43 f9b8 95dd 7038 9a3e a8b9 2a72 14b8
00000020: 4def 3638 870f b438 82ac 7db8 262c 3ab9
00000030: cc1f 22b8 1c52 83b6 413e a3b7 c139 a9b8
00000040: 6c01 1ab9 9d16 5338 8dcd 4eb7 15c6 2239
00000050: ac58 9cb8 8415 0138 5eef 14b9 69d5 d038
00000060: 0245 1c39 01f4 b936 c3df 49b8 9dc3 0638
00000070: 8c13 a9b7 779a 4e37 8575 2ab8 e7fe 4137
00000080: 1adb 2eb8 9469 2a37 6014 9f38 3664 fcb8
00000090: 4637 93b7 acdc 0bb9 909a 51b7 3e48 1439
000000a0: 93ec ea38 9328 8bb8 17bb a337 3b45 663a
000000b0: 5ac2 77b6 8370 c737 f9f7 d0b8 3afa 0eb9
000000c0: db29 9d38 2906 7138 182d a9b7 dffd c339
000000d0: a06a 6138 a33f e1b8 338d 5eb7 9022 7d37
000000e0: 9d19 29b8 2021 29b9 583c 25b8 12b9 b135
000000f0: e6bd b937 2235 4eb9 41aa 8c38 f0bd c538
0.00012775458 -3.3810258e-05 -4.3856035e-06 -4.8873106e-05 -0.00011885827 5.7426823e-05 -0.000320901 -3.5392273e-05
4.3615048e-05 8.585961e-05 -6.048056e-05 -0.00017754789 -3.8653423e-05 -3.913663e-06 -1.9460103e-05 -8.0693055e-05
-0.00014687114 5.032738e-05 -1.2326415e-05 0.00015523315 -7.455176e-05 3.0776035e-05 -0.00014203551 9.9579636e-05
0.00014903027 5.5418354e-06 -4.813053e-05 3.213027e-05 -2.0155472e-05 1.2314521e-05 -4.0640607e-05 1.15630455e-05
-4.1688887e-05 1.0157371e-05 7.585506e-05 -0.00012034962 -1.7549504e-05 -0.0001333828 -1.2493358e-05 0.00014141292
0.00011202055 -6.635594e-05 1.9518235e-05 0.000878412 -3.6918996e-06 2.3775041e-05 -9.9644014e-05 -0.00013635392
7.4941396e-05 5.7464615e-05 -2.0167368e-05 0.00037382447 5.3743483e-05 -0.00010740689 -1.3265107e-05 1.5088022e-05
-4.0316594e-05 -0.00016129436 -3.9395265e-05 1.324139e-06 2.2142147e-05 -0.00019665484 6.7074325e-05 9.4290706e-05

conv2.weight f4 [64, 64, 3, 3]
00000000: a0e8 20be 993d e6bd d41a d23d 63d6 03bd
00000010: 9be7 bebd c3d3 943b fb4d 993c 06c8 083d
00000020: f358 a1bd 890c ae3d 8650 64bd e3a2 38bd
00000030: 74de 2ebd 66e2 0fbe 4815 96bd 4d9d cabd
00000040: 73a6 bebd 9859 99bd 23f7 443d d6b0 b33c
00000050: 0272 d53c 0c95 143b 12be cebb a123 383c
00000060: 85d8 1abd 4a48 32bd 3730 8bbc 285d b83d
00000070: e6f8 b23d b106 f6bb ee67 b2bc d889 c9bd
00000080: e69b 68bd a51c e53b 1606 77bd 63ed 47bc
00000090: 0916 d2bd 50bf a8bd 6808 febc 62d2 54bd
000000a0: 6561 4dbd d9a1 edbc 7533 c03d 0bed c3bc
000000b0: 957a 5dbd 5d74 2b3c d3a3 10bc b398 bb39
000000c0: 67d6 cd3c 0e52 cdbb cbd6 c33b 9658 183c
000000d0: 17fb 85bc 2834 4b3b eea9 bf3d 686a 91bd
000000e0: d7ce 10be be43 ed3c 4a3b e6bd 03a8 3abe
000000f0: e31e 5f3d e5c6 b33c b41e 7cbe 4bb7 513d
00000100: 2980 863a 3027 9d3c 7475 a1bb 1993 97bc
00000110: df08 083c 8cf7 0dbd 7c63 44bd 3c23 0d3c
00000120: d7e2 58bb 65dc 8bbd 3f48 25bd 8814 373c
00000130: 5042 5ebc 4f60 143c 9a54 02bb bb5a 11bb
00000140: 9bf9 ae3c eea6 a43d b3e6 8e3c fe7d 623c
00000150: a0bc 2e3d b481 fa3c 3c11 48bc ba7e 863d
00000160: 9757 873d b6a3 e03c ee5a b3bc d284 02bd
00000170: 2bed 8dbd ab60 353c f376 96bc 8f78 99bc
00000180: 93b1 25bd 579a 4ebc 9ad2 f63c acb7 bd3c
00000190: 9a85 01bd 9111 81bd 9dc1 7c3c 8341 b8bd
000001a0: 4c33 a8bc 1590 e13b e22b 12bd b8ca 2dbb
000001b0: 51c4 273d 6b72 323d 4025 353d ef0f 3bbc
000001c0: 09eb 363b bda3 663c 67bc 39bd a912 49bd
000001d0: 1f63 1bbc b5a5 673c 6759 b0bd acc1 89bd
000001e0: d01f 3b3d bce2 ccbc 1f4c b5bd 7589 ce3c
000001f0: b754 85bd 1044 dbbd 2aa4 9e3d 1b8f a03d
00000200: 3f67 ae3d 6f1a c93c 5610 583d aa11 6c3d
00000210: 0525 94bc e830 99bb 7662 0f3d 6758 f83d
00000220: dc95 033d ea24 40bc b042 5a3d fd6b 06bc
00000230: 25c1 cfbc 744a f5bb e4bb 3dbd afb4 78bc
00000240: 9049 a5bd aad9 eebd 85de 013e c440 88bb
00000250: aae9 b4bc becf 99bc 570d 643d a2a8 96bc
00000260: 896d f2bd 93cc d33d add8 163d eac2 49be
00000270: e002 d43c ca9c b23c 51ed 51bd 6fe7 af3c
00000280: 2769 bdbd 2534 223c ef37 093d c436 793c
00000290: a367 2e3c ddc6 2f3d 21b7 3fbb 1711 bf3c
000002a0: d47c a6bb e297 50bc dc97 1c3c 32c3 943c
000002b0: 1ae2 52bd 3792 80bd f76c 6ebd d7eb 85bd
000002c0: 4167 4bbd 6681 babb 7135 003c de17 243c
000002d0: 1624 c1bd 5465 07be 8c3a b1bd 00f4 74bd
000002e0: 04e2 04be d674 d4bd a901 05bd 1eee e7bd
000002f0: c5ac 07be 1691 a33b 56df 15bc 8841 e5bb
00000300: a2c6 e03c e06b 3a3d f25f c93c d147 5f3d
00000310: ad28 4e3d 227f 173d baa7 05bd 5545 c0bd
00000320: e42d 3ebe 2f29 2cbd e607 223e 6907 9b3a
00000330: 9275 b3bb 5c63 ef3d 0991 2b3e 8a0a e43d
00000340: 14db 983d e5ce f5bc f5c1 6bbc 59de 733d
00000350: c3df 0b3e 8b69 36bd 2750 d03d a890 c63d
00000360: 962d 883d 4982 233d 82dd 91be 1925 d3bc
00000370: ce24 d03c 93e3 9ebc 63ef 7ebc b33d f3bc
00000380: cf78 4c3c f9db 443c a30b afbc 39e8 47bc
00000390: 30e2 6a3c 7093 b0bc 1571 d0bc b60a ec3b
000003a0: 05ed c4bc 2c24 8bbc dd5e ac3d 9400 4d3c
000003b0: 7542 8ebc 6cef 20bc b5aa 82bc f1b7 f33b
000003c0: fca8 e6bc ecc5 7abd 0187 b9bc df8d 533d
000003d0: 5ae6 46bc 4f4f 2bbd a495 783d f671 49bd
000003e0: 4f66 15bd 7dba 633c f135 763c 664a 483d
000003f0: 1d7e fe3c c8f9 8bba cdd2 ab3c 07ef 163d
-0.1571374 -0.112422176 0.10259023 -0.032186877 -0.09321519 0.0045418455 0.018713942 0.033393882
-0.07878294 0.08498485 -0.055740856 -0.045077216 -0.042692617 -0.14051208 -0.07328278 -0.09893284
-0.093090914 -0.07487792 0.04808725 0.021934908 0.02605534 0.0022671847 -0.0063092792 0.011238963
-0.037804145 -0.04352597 -0.016990764 0.09002143 0.0873888 -0.007508122 -0.021778073 -0.09840745
-0.0567893 0.00699194 -0.06030854 -0.0122025935 -0.10258109 -0.08239615 -0.031009868 -0.05195845
-0.05014171 -0.029007839 0.09384815 -0.023916742 -0.05407198 0.010464755 -0.008828121 0.0003578119
0.025126649 -0.006265885 0.005976533 0.009298464 -0.01635508 0.003100643 0.093585834 -0.071003735
-0.14141403 0.028962966 -0.11241777 -0.18228154 0.054472815 0.021945426 -0.24621087 0.051200192
0.0010261583 0.019183725 -0.0049273316 -0.018502759 0.008302896 -0.034659907 -0.04794644 0.008614358
-0.0033094191 -0.06829146 -0.040352102 0.011174329 -0.013565615 0.009056165 -0.0019886852 -0.0022179324
0.021359256 0.08039652 0.01744399 0.013823984 0.042660356 0.030579425 -0.01221114 0.0656714
0.06608503 0.027421813 -0.021893945 -0.03186495 -0.06930002 0.011070411 -0.018367266 -0.018734245
-0.04045255 -0.01261004 0.03012972 0.02315887 -0.031621553 -0.06302179 0.01542702 -0.0899687
-0.020532273 0.006883631 -0.03568638 -0.0026518535 0.040958706 0.04356615 0.044224977 -0.011417373
0.0027911088 0.014077124 -0.04534569 -0.04909006 -0.0094840815 0.014138629 -0.08610802 -0.06726393
0.045684636 -0.02501046 -0.088524096 0.025212029 -0.06510299 -0.10706341 0.077461556 0.07839795
0.085157864 0.024548737 0.052749954 0.057634033 -0.018084059 -0.0046750195 0.03500601 0.121262364
0.03212534 -0.011727551 0.053286254 -0.008204457 -0.025360653 -0.007485682 -0.046321765 -0.015179797
-0.080706716 -0.1166261 0.1268254 -0.0041581113 -0.022084076 -0.018775817 0.055676784 -0.018390957
-0.118372984 0.10341754 0.036827732 -0.1970326 0.025880277 0.021803278 -0.051251713 0.02147266
-0.09248572 0.009900128 0.033500608 0.015210811 0.010644826 0.04291426 -0.002925344 0.023323579
-0.0050807986 -0.012731524 0.0095576905 0.018159483 -0.05148516 -0.06277888 -0.058209386 -0.065391235
-0.049659017 -0.005691695 0.007825241 0.010015456 -0.09430711 -0.13222247 -0.08653745 -0.05980301
-0.12976843 -0.10373847 -0.032472286 -0.11324714 -0.132495 0.004991661 -0.009147486 -0.0069963373
0.027438466 0.045513034 0.024581883 0.05451185 0.05033176 0.036986478 -0.03263066 -0.09388224
-0.18572193 -0.042031463 0.15823326 0.001182777 -0.005476662 0.11688873 0.16754545 0.11134823
0.07463661 -0.030005882 -0.014389505 0.05953822 0.13659577 -0.044534247 0.10171538 0.0969556
0.0664932 0.03991917 -0.2848931 -0.025774525 0.025408175 -0.019395625 -0.015560004 -0.029692506
0.012479975 0.012015336 -0.021367854 -0.012201362 0.014336154 -0.021554679 -0.025444547 0.0072034253
-0.024038801 -0.016985022 0.08416531 0.012512345 -0.017365674 -0.009822708 -0.01595054 0.007437699
-0.02815675 -0.06122391 -0.022647383 0.05164897 -0.012139881 -0.04182368 0.060689583 -0.049180947
-0.036474522 0.013899443 0.015027509 0.048899077 0.031065995 -0.0010679299 0.020974541 0.036849048

conv2.bias f4 [64]
00000000: f810 0cbd 05d3 103e 9faf 233d 6f3f 0c3e
00000010: 5d6a 513e b563 9ebc e256 d83c cf22 903d
00000020: 433d d43e 810a c1bd 8816 513d 7aa8 c13d
00000030: 6dcb 533c 8985 863d ee32 3e3e 49fc d63d
00000040: 6b7f ad3c 9594 cbbd 9534 8d3d 5285 e8bd
00000050: 8380 26bd 505d ac3d 12c0 60bd c512 b0bb
00000060: ad5a c2bc fda7 373d bbbb 70bd 5c84 fd3c
00000070: 7d5a e83d da15 193d 0fb5 b8bd e9a9 2a3d
00000080: 8259 033d 8018 b03c a8db 363d d43f c73d
00000090: d11e 4c3d f17f 733d 2903 5c3c a2c0 363d
000000a0: 4405 d03d 54d5 8e3d 38b6 94bd f227 663d
000000b0: 41d1 863d 5ebe d9bb 4660 76bd 3a90 09be
000000c0: 5e5d a4ba b2dc 13be a730 0f3d 3fba 133d
000000d0: c5ab 0d3e 0b2d 45bd 8897 103e 289d 95bd
000000e0: 7e6d e13b f3ab 18bd c6a1 d23d 6813 823d
000000f0: 441a c73d 67db 0fbe 38e2 a13d 2a62 6f3e
-0.03419587 0.14142998 0.039962407 0.13696073 0.2045073 -0.019334653 0.026408616 0.07037889
0.4145299 -0.094258316 0.051046878 0.094559625 0.012926918 0.065684386 0.18574116 0.10497338
0.021178922 -0.09940449 0.06894795 -0.11353554 -0.040649902 0.084162354 -0.054870673 -0.0053733313
-0.023724878 0.04483794 -0.058772784 0.030946903 0.11345384 0.037374355 -0.09018909 0.041665945
0.032067783 0.021496058 0.044643074 0.09728971 0.049834076 0.059448186 0.013428488 0.044617303
0.10157254 0.06974283 -0.07261318 0.05619044 0.06582881 -0.006645008 -0.060150407 -0.13433924
-0.0012540033 -0.14439657 0.034958508 0.03606629 0.13835056 -0.04813866 0.14120305 -0.07305366
0.0068795076 -0.03727336 0.10284762 0.06351358 0.09721807 -0.14048539 0.07904476 0.2337729

conv3.weight f4 [64, 64, 3, 3]
00000000: 8b09 8fbd dc83 06bc d6f6 1e3e faeb a2bc
00000010: 8415 8a3d 0352 febc cefa 9bbd e64d 4b3e
00000020: d50a eabc 9511 983b c3b8 7ebd af84 7bbd
00000030: 492e 3f3e 9fcf 1c3d 7e0b 803d 7f80 2f3e
00000040: 5464 233d 9660 f5bb 3594 0f3e e958 3d3d
00000050: 1f73 833c ad2d 8a3b e590 ddbd f2a6 82bd
00000060: a5ae 903d e4ad 773c d008 3d3c 73fa ee3c
00000070: 8410 3c3d 8062 d13d 9cda e1bd 498d 13bd
00000080: bf3c 583d 5fdd 15be 300d 1abd 6ad9 b33d
00000090: 74c9 113d fdd1 543a d409 3d3c 809e cd3c
000000a0: 3fe6 71bc 75e9 133d 62d3 a03c 36ff 863d
000000b0: 5c77 a33c 7005 71bd e2c7 d53b bbc4 003e
000000c0: f4d2 233d 76ab 003e 32d2 c8bc c6b9 1f3e
000000d0: f7e8 b73d fbe8 e63c 7a64 1b3d fd84 c03b
000000e0: 538e 1ebd 9df2 6cbd bc66 1bbd bfbf d33d
000000f0: 84d4 0dbe 0dd0 8bbc f650 223c 7114 f3bd
00000100: 6380 413c bd86 f73c f117 97bc 48d2 893d
00000110: 0d0f 193e 8caa f23d ab1b 453c 0ab1 05bd
00000120: 450f 48bd 5b39 59bd bb2f 08bc df54 70bd
00000130: 757c 6cbd fdf1 b23d e3b4 11be c841 05be
00000140: 7786 3abd 7de9 e13d e443 12bd b27f 203d
00000150: 4995 d03c 8749 02be 2fba b73c c72f c13d
00000160: 0383 8bbd bdd3 b23c 5317 7ebc 77a0 9fbd
00000170: 78dc 42bd 6e3b b1bd 57ce 99bd 95a4 47bd
00000180: f166 35bd 5887 47bd 7acf 5cbd 691d 473d
00000190: 6611 163d d0e8 a7bd 6639 18be e0dd cabd
000001a0: fa80 28bd bc86 9c3d 1561 853d 55cc f83d
000001b0: 9159 043e 88c1 c9bc 134a 213e 274c 61bd
000001c0: 5e8a 08be 9a88 ee3d 1cc3 efbc 65b9 c53d
000001d0: 97e0 0bbd 598a 393e 386c b73d 9a9f 3b3d
000001e0: 439a 8fbd f31b dcbd d7d2 52bd 4980 903d
000001f0: 603a 6a3d 2b56 2d3e a56a 36bd 0646 1a3a
00000200: 4f10 3cbe a6fa 1e3d 0d5c d73d 2c75 65bd
00000210: d59c f5bd 3953 00ba c3eb 40bd a9f7 1d3e
00000220: 5097 363c 69f1 83bc 8cc6 513b b869 61bd
00000230: b486 cbbd 9b03 c33c 4176 f7bd 9730 fabd
00000240: a7d5 4b3d d1ae 9dbd 919b aabd b5fc 733c
00000250: 6180 edbd 7dd2 773c a054 103d 1940 82bd
00000260: 6c44 a83c 738d c43c dc5b 1d3d 87d9 7d3d
00000270: 540c 82ba 9c0b 223e 5c92 293d a8ba 8abc
00000280: 2ec1 d03d 80a9 503d a9ec 383c 20a1 533c
00000290: 6c1d 24bd 13f6 533d 70b8 013e 5e79 413d
000002a0: 10f1 123d c13a 4c3c 8921 82bd 012d dd3d
000002b0: 8e5d 923c ab02 373d c8c6 b4bd aed0 37bd
000002c0: b477 7dbd 093a af3c d8cd c53d 86e1 2bbd
000002d0: 794c d2bb 6986 4b3c 9800 d03c cf4a d5bb
000002e0: e53a e5bd 1abf cdbc 7784 40be acc3 9fbd
000002f0: 10ef ba3c 38fc aebc 8cea a6bd b42f f63d
00000300: fdba 47bd 7690 21bc 0447 343e 3e83 85bd
00000310: 8fc9 8abd 2217 403d bb9e 743d 6e85 1f3e
00000320: d4f0 513a 84d0 823d 61f7 323d 4c7c cfbd
00000330: d450 103e 955d df3d 07da 07bd d339 a03d
00000340: 25d0 203d e3ef 5a3d 54d3 f7bc 1bb3 3fbe
00000350: f9da 09be c3e8 40bd 633c d8bd 0d57 e5bd
00000360: 2e87 c6bd 0ed7 cebd cab3 2f3e 6dc5 08bd
00000370: cf3c 773d 1e4a 1e3d 7002 8b3c 85f3 b2bc
00000380: 98b9 b6bd 93af 993c 031e db3c 93c8 fe3c
00000390: d85b 04bd 1623 56bd 9c75 6d3d 2d52 363d
000003a0: 0f8d 993d b9e6 073d 9e15 8ebd e285 2a3b
000003b0: 1ab3 953d 8e0b 9ebd 23fa bc3c fff2 1fbd
000003c0: 8f03 ef3c 97fd e63c 2d46 403d 8899 e2bc
000003d0: 8e35 703a dc55 653d 7ddd 34bd 5368 173e
000003e0: d9fd 863c 6e90 863d 808a c63d ed1c 053d
000003f0: ea24 c13d 0d54 813d e2e9 a0bc 5954 a6bc
-0.06984242 -0.008210149 0.15523848 -0.019887913 0.06742385 -0.031044966 -0.076161966 0.19853935
-0.028569618 0.004640768 -0.06218792 -0.061405834 0.1867 0.03828394 0.06252192 0.17138861
0.039890602 -0.0074883206 0.1402138 0.04622737 0.016046105 0.0042168708 -0.10818652 -0.063794985
0.07064561 0.015117142 0.011537746 0.029172158 0.045914188 0.102238655 -0.110280246 -0.036023412
0.052792307 -0.14635228 -0.037610233 0.08781703 0.03559251 0.0008118449 0.011537988 0.025099993
-0.014764368 0.036111314 0.019632045 0.065916464 0.019954376 -0.058843076 0.006524072 0.12575047
0.039996102 0.12565407 -0.024514291 0.1559821 0.089799814 0.028187266 0.03793762 0.0058752284
-0.03870995 -0.05784856 -0.037939772 0.10339307 -0.138506 -0.01706698 0.009906998 -0.11869133
0.011810395 0.030215615 -0.018444033 0.06729561 0.14947148 0.118489355 0.012030522 -0.03263954
-0.048842687 -0.053033214 -0.008312161 -0.05867469 -0.05773588 0.08737562 -0.14229159 -0.13013375
-0.045538392 0.110308625 -0.035709277 0.03918428 0.02546181 -0.12723361 0.022427646 0.09432941
-0.06812098 0.02182948 -0.015508491 -0.07794278 -0.047573537 -0.086539134 -0.07510059 -0.048740942
-0.044287626 -0.04871306 -0.053908803 0.048612032 0.036637686 -0.08198702 -0.14865646 -0.099056005
-0.041138627 0.07642886 0.065126576 0.12148348 0.12924792 -0.024628416 0.15750913 -0.055004265
-0.13334033 0.116471484 -0.02926784 0.09654502 -0.034149732 0.18119182 0.08956188 0.045806505
-0.07011845 -0.107475184 -0.051470604 0.070557185 0.057184577 0.16927402 -0.044535298 0.0005885068
-0.18365596 0.038813256 0.10515604 -0.056019947 -0.11992804 -0.00048952136 -0.04709984 0.15426506
0.011144474 -0.016106324 0.0032009212 -0.055032462 -0.09937802 0.02380543 -0.12083102 -0.12216299
0.0497643 -0.07699359 -0.08330453 0.014891793 -0.11596752 0.015125868 0.035236955 -0.06359882
0.020540439 0.02399323 0.038417682 0.06197503 -0.0009921887 0.15824741 0.041399345 -0.016934708
0.10193096 0.050942898 0.011286893 0.012916833 -0.04006712 0.051748347 0.12668014 0.047234885
0.035874426 0.01246518 -0.063540526 0.107995994 0.017866876 0.04468028 -0.08826977 -0.044876747
-0.061881736 0.021389978 0.09658402 -0.041963123 -0.0064178077 0.012422183 0.025390908 -0.006509162
-0.11192874 -0.025115538 -0.18800531 -0.07800993 0.022819072 -0.021360502 -0.08150205 0.120208174
-0.04876231 -0.009861102 0.17605215 -0.06519173 -0.067767255 0.04689706 0.05972169 0.15578243
0.00080086035 0.063874274 0.04369295 -0.101311296 0.14093333 0.10906521 -0.03316691 0.07823529
0.039261002 0.05345143 -0.030252136 -0.18720667 -0.13462438 -0.04709698 -0.10558393 -0.11198244
-0.09693752 -0.10099612 0.17158428 -0.033391405 0.060360726 0.038644902 0.016968936 -0.021844635
-0.08922118 0.018760478 0.02674771 0.0311015 -0.03231415 -0.052279554 0.05797349 0.044511963
0.07497608 0.03317902 -0.06937717 0.0026019742 0.073095515 -0.07717048 0.023068493 -0.0390501
0.029176502 0.028197093 0.046941925 -0.0276611 0.00091632537 0.055990085 -0.04415654 0.1478589
0.016478466 0.065705165 0.096943855 0.03249829 0.09430869 0.063148595 -0.019642774 -0.020303892

conv3.bias f4 [64]
00000000: 4593 3e3d 61df 993d 022e ed3d 0270 803d
00000010: e7ce 393e ec29 073d 40f8 65bd 1b14 0b3e
00000020: 4dd0 3e3d 8876 a2bd c3d5 7d3d 3764 a23c
00000030: ef51 013e 31cc a2bd 7a45 273e ccf2 843d
00000040: 2d64 143c ebfa 913b 13a4 bf3d a1d3 183d
00000050: 8e3f 903d a79c 313e f139 183d 814b 253c
00000060: 1897 d6bd 755a 193d fa99 25bd bb07 4a3d
00000070: 3b54 023d b29f 623d d897 aebb b063 bf3d
00000080: aa91 8f3c 8d6d 24bd 5e02 663d 347c a13d
00000090: 2c83 4d3d 2f10 04bc 4597 8d3c 8ee2 ba3d
000000a0: 7af1 e83c 20bb c73d 27fb 123c df67 d13d
000000b0: 43e5 86bd 28b3 aabd 4d1a c5bc e9c0 4a3d
000000c0: c744 9f3d 0dee 013e 65d1 e43d 7b15 853d
000000d0: 025e 89bb 9658 3e3d 7748 d4bc 55ad 633d
000000e0: 1977 983c 3148 433d 337f ee3c d329 a13c
000000f0: 2ea4 343e 920f 0cbd 9207 11be 4db6 493c
0.046527166 0.07513309 0.11581041 0.06271364 0.18145333 0.032998964 -0.056144953 0.13581888
0.04658537 -0.07932764 0.061971437 0.019823177 0.12628911 -0.07949103 0.16335097 0.06491622
0.009057087 0.0044549606 0.093574665 0.0373112 0.07043372 0.17344914 0.037164632 0.010088802
-0.104780376 0.037439782 -0.040430047 0.04932378 0.03181861 0.05532808 -0.00532816 0.09345186
0.017525513 -0.04014354 0.0561546 0.07885018 0.050173923 -0.008060499 0.017284045 0.09125243
0.028435457 0.09752488 0.008971012 0.1022489 -0.06586697 -0.083349526 -0.024060393 0.04950038
0.0777679 0.12688465 0.11172751 0.06498238 -0.004192115 0.0464712 -0.02591346 0.055585224
0.018611478 0.04767627 0.029113388 0.019673264 0.17640755 -0.034194537 -0.14163044 0.01231153

batch.weight f4 [64]
00000000: 2458 dd3e 4d19 ff3e 3d5b b93e 134c 053f
00000010: 26d8 333f e5ad b03e 04c9 4e3f 4957 053f
00000020: 4527 583f b4b8 063f a0cb 063f 8d9b 023f
00000030: c19a 093f 3b8f 013f 8734 f83e 261f 2d3f
00000040: e102 643f ffc2 0a3f 9310 f13e 065b 1f3f
00000050: 5a76 3b3f 2704 f63e 78c1 273f d87e 723f
00000060: 2d65 313f 3dbd 9f3e 7e6f ef3e 3ee7 073f
00000070: 6fd1 e03e c301 113f db99 343f cf06 e73e
00000080: b294 dd3e d373 a43e 78bc 303f 73da d83e
00000090: 5c9c e73e c548 413f ceaa 063f ad8c 943e
000000a0: 74e9 e53e d7fb 1a3f fa70 423f a0a0 d73e
000000b0: d7c9 4b3f 0bf2 953e 41f0 643f 32bb 3c3f
000000c0: 84d0 053f eacb f33e f80a 1e3f 8950 133f
000000d0: 220e e53e 1128 473f 7d4c 123f aab6 d03e
000000e0: eb36 cd3e cbcf 0d3f 346c dd3e 575f c43e
000000f0: 6a94 c33e 8c58 763f 633c 9b3e f695 013f
0.43231308 0.4982399 0.36202422 0.52069205 0.7025169 0.3450767 0.80775476 0.5208631
0.8443492 0.52625585 0.5265446 0.510186 0.5375176 0.5060918 0.48477575 0.67625654
0.8906689 0.5420379 0.47082958 0.62248266 0.73227465 0.48050043 0.65529585 0.947248
0.69295007 0.31199065 0.4676475 0.5308722 0.43909785 0.56643313 0.70547265 0.45122382
0.43277508 0.32119617 0.6903758 0.42354164 0.4523648 0.7550166 0.5260438 0.29013577
0.44904673 0.6054053 0.7595364 0.42114735 0.7960486 0.29286227 0.894291 0.7372314
0.52271295 0.47616512 0.61735487 0.5754476 0.44737345 0.7779551 0.5714796 0.40764362
0.40080962 0.5539519 0.43246615 0.3835399 0.38199168 0.9622886 0.3031951 0.5061945

batch.bias f4 [64]
00000000: 47a7 d8bc 8d6a aebe 0f09 d3be 6cd1 0cbf
00000010: 38ea 8cbe 087a c2be 5544 223d c5f0 23bf
00000020: 3e71 c4be 265f 2dbe 0f75 2dbf 4a02 14bf
00000030: 0f51 20bf a2c4 85be 5fc3 ffbe 075f ffbe
00000040: 6326 5abd 04fb 003f 9488 edbe fa16 7dbe
00000050: ee88 0dbf e659 f9be 0521 8abc 6666 2ebf
00000060: 940f 073e 27f9 f6be 5fe6 eebe 00dc d3be
00000070: 0c40 06bf 4f20 37bf 2f89 8ebd ae39 d4be
00000080: aa89 eebe 4d44 b13c 9f7c 18bf e4b0 553e
00000090: 279b ffbe 470f 14be 83f2 13bf 8a0c 053e
000000a0: a5ef a8be 59df 11bf 781e fe3d 5a7f 32bb
000000b0: 7e74 7bbc 35c5 b3be 6f02 2fbf 2d05 c0bd
000000c0: 82b9 27bf fe53 6dbc 2ad1 07bf 81ab cebe
000000d0: 8129 ccbe ac4f fdbd 5507 afbe 72f7 98be
000000e0: 82d1 e3be 6f00 84bc f096 e7be 24bf 3dbe
000000f0: 96a5 ddbe 7ebe 1f3d 735f d23f f6d7 66be
-0.026446952 -0.34065667 -0.4121785 -0.5500705 -0.27522445 -0.37983727 0.039615948 -0.6403926
-0.38367647 -0.16930827 -0.6775674 -0.5781599 -0.62623686 -0.2612658 -0.49953744 -0.49877188
-0.053259265 0.5038302 -0.46393263 -0.24715796 -0.55287063 -0.487014 -0.016861448 -0.68125
0.13189536 -0.48236963 -0.46660134 -0.41378784 -0.5244148 -0.71533674 -0.069597594 -0.41450256
-0.46589404 0.021639014 -0.59565157 0.2086826 -0.4992306 -0.14458953 -0.5779192 0.12993065
-0.32995334 -0.56981426 0.12408155 -0.0027236552 -0.015347598 -0.35111395 -0.6836309 -0.09375987
-0.6551744 -0.014485357 -0.53053534 -0.40365222 -0.39875415 -0.12368712 -0.3418528 -0.29876286
-0.4449578 -0.016113488 -0.45232344 -0.18529946 -0.43290395 0.039000027 1.6435379 -0.2254332

batch.running_mean f4 [64]
00000000: c229 0abf 047c 903d d1ee 653f c9f3 5c3e
00000010: aee3 a2be 3fdf 053f 7465 4cbf f9ee 1c3e
00000020: b9c3 91be a1c9 bfbd 4661 1e3f e637 563e
00000030: 739d f93d 4612 c2bc ac13 c43e 5108 aabd
00000040: b848 b6be 9124 80be fad6 293e 2f45 b3be
00000050: 414b 04be 9390 943e df2e c6be 92a3 743e
00000060: 6660 5b3f 484c 703f 1cc4 943e f299 01bd
00000070: f7d9 70bc e6e1 063f 7ecd e5be 020a a33e
00000080: bf96 ba3d 209a f73c ff74 e73d 02a3 413e
00000090: 0484 c13e c013 4dbe 14ef 3c3e 0be5 80be
000000a0: cad2 593d 2438 753e b359 e7be 550c 833d
000000b0: 0e08 2bbe 35c4 19bf d58e 46bf 3fd8 2abf
000000c0: d2bd 9f3e 78b0 d23d c1a9 80ba 08cf 07bf
000000d0: 4ee0 1f3e 6dc1 13be 0a1a 1ebe 9a26 de3e
000000e0: f4d7 fe3e b74e b6be feca 02be 331e ed3e
000000f0: 9f22 cc3e 2b3d d5be 6d38 19bf 4571 0d3d
-0.5396997 0.07054904 0.8981753 0.21577372 -0.3181433 0.5229377 -0.79842305 0.15325536
-0.28469637 -0.093646295 0.6186718 0.20919761 0.12188234 -0.023690354 0.38296258 -0.083023675
-0.35602355 -0.25027898 0.16585913 -0.3501372 -0.12919332 0.2901655 -0.38707635 0.23890522
0.8569397 0.93866396 0.2905587 -0.031640954 -0.014700404 0.52688444 -0.4488334 0.31843573
0.09110784 0.03022486 0.11301612 0.18909839 0.37796032 -0.20027065 0.18450576 -0.25174746
0.05317954 0.23947197 -0.45185623 0.063988365 -0.16702291 -0.60065013 -0.77561694 -0.66736215
0.3119951 0.10287565 -0.0009816216 -0.5305028 0.15612909 -0.14429255 -0.1543962 0.43388826
0.49774134 -0.3560693 -0.12772748 0.46312103 0.39870164 -0.4164823 -0.59851724 0.03453185

batch.running_var f4 [64]
00000000: 78b4 1b40 fa73 c03f e692 bd3f 149d cc3f
00000010: 1409 1740 bf24 6a3f 8f72 1940 0657 a33f
00000020: 5de8 f13f 20ec b33f c3ac a63f c2d4 a73f
00000030: a7ef 8e3f 3075 c83f 6e2d f93f d038 1840
00000040: 3928 d33f 735a 3840 95ac ba3f f09f 5440
00000050: 8992 3940 d1d9 fa3f edc7 3940 4ba6 fe3f
00000060: 1b00 1f40 8dc5 ca3f 8bab 8e3f 7afa 2b40
00000070: f0b2 ed3f b30d d63f ca7b 1c40 4e85 aa3f
00000080: c682 cd3f 1d5f a53f c007 ad3f 7aa1 b13f
00000090: a55f aa3f b72a 0940 32d0 0740 b285 c03f
000000a0: 27a6 cf3f f04f 1240 57c3 2240 85f6 983f
000000b0: 9e87 fe3f a55f 0640 6082 9540 260a 1f40
000000c0: e28b 843f 8221 cd3f d5b3 0840 9dd9 0440
000000d0: 4707 e33f a5be 5f40 26df c43f c8b2 b43f
000000e0: 9ce6 863f e435 0540 cfb0 de3f 8a01 9c3f
000000f0: 9b47 8c3f b4a6 3140 a7f4 cd3f 0dd8 1540
2.43289 1.5035393 1.4810455 1.5985436 2.359929 0.9146232 2.397617 1.2760932
1.8899037 1.4056435 1.3021473 1.3111804 1.1166886 1.5660763 1.9466989 2.3784676
1.649665 2.8805206 1.4583918 3.3222618 2.8995688 1.9597722 2.9028275 1.9894499
2.4843814 1.5841538 1.1146101 2.6871629 1.8570232 1.6722931 2.4450555 1.3321931
1.6055534 1.2919651 1.351799 1.3877404 1.3310438 2.143232 2.1220822 1.50408
1.6222581 2.286129 2.5431726 1.1950232 1.9885137 2.0995877 4.672165 2.4849944
1.0355189 1.6025851 2.135976 2.075782 1.7736596 3.496011 1.53806 1.411706
1.0539126 2.0814142 1.7397708 1.218797 1.0959352 2.7757998 1.6090287 2.3413117
