hw3/DANN_mnsv_L.pth (torch_old, 865361 bytes, 6 tensors)

hidden1.weight f4 [256, 576]
00000000: 4884 2eab e425 22a8 4855 97a6 a05c 4ba1
00000010: eba2 eb9a 7769 6a96 1ac5 3ea3 89ed b9a2
00000020: 73dd a599 d550 53a3 2c22 fe03 d7d6 0089
00000030: 87c2 7c99 f31f 0080 cd1f 0000 ccaf 5595
00000040: 591f 0000 4014 0080 43e7 87a8 0c53 20a9
00000050: cbc4 61a7 b9f6 8ca4 be72 efa5 f4c9 a7a1
00000060: 2f3f a1a2 da43 f2a1 c03b 8d9e 351b 0000
00000070: 421b 0000 0a0a 0080 833b 740c a910 0000
00000080: 0a26 0080 9978 9c0d 0e06 0080 a71c 0080
00000090: 537c 5fa5 bdcc 939a 8b31 fb90 8302 97a5
000000a0: a67f b498 845c 1198 9a0f 43a5 1a91 8397
000000b0: e390 8d93 4fd3 65b2 5326 eab1 9a6e c4b1
000000c0: 2da4 81b2 ee81 f9b1 075b 04b2 0fe5 75b2
000000d0: 11bf 5fb2 df31 afb1 2826 27ac ea0d 51a1
000000e0: 081e 909e 0c40 10ae 519e a59d 1ced c799
000000f0: b6ee d2aa 7c3e 9098 5fa6 1095 9910 0080
00000100: 4416 0000 bb0d 0080 e413 0000 2723 0080
00000110: 9804 0080 0913 0080 7817 0000 c80f 0000
00000120: 6198 c49c 9a32 0a9a 78eb 0d97 2808 fc86
00000130: 201a 0080 3f1a 0000 2261 0400 1925 0000
00000140: 0826 0080 2721 0080 b72d 0080 4417 0000
00000150: 7a0c 0000 b505 0000 6205 0080 191c 0000
00000160: a3e5 2397 05b8 100c 4e1e 83b4 1e1d b8ac
00000170: a4a2 83a9 a329 99b2 9654 18a4 7e21 9aa2
00000180: f95f 55b3 cdcb 04a2 8287 789b 3897 5e97
00000190: 326a 1d93 5072 0000 185f dd8e bc20 da0d
000001a0: 7e48 d504 fe17 0d97 2d4e d60d c8ab d30c
000001b0: 4a36 fea6 a724 e2a0 df1d ad9b 6ddd 7f9a
000001c0: 5092 470c a33a 0c04 c680 a594 9263 3880
000001d0: 6f0b 0080 77dc dca3 7e02 0000 f407 0000
000001e0: d913 30a3 64ba 7290 d6dd b981 6a43 98a6
000001f0: de7f 4396 420a 4504 4c3e 0000 d51e 0080
00000200: 2219 0000 fa71 0000 5d66 220d 349e 0100
00000210: 645b d104 6802 2195 df36 fe04 d06a b68c
00000220: 2589 5281 7e1b 0080 42d5 97a0 e6b2 9e95
00000230: dd40 da92 2396 539c 0c14 6b0d 321e eb0d
00000240: 7c7b 6a0d 7517 0000 e725 0000 13cf 2c90
00000250: 1ad2 7f92 b215 da0c ea32 2295 a79a fe91
00000260: e85e e798 4d37 0080 6b2d 0000 f93e 0000
00000270: 5323 0080 d42f 0080 5404 0000 4a0d 0080
00000280: 4929 0000 be31 0000 12b1 259e 4984 779c
00000290: 7b22 3798 0930 509b 0d97 f096 526e d095
000002a0: 068e 719b ce35 f299 4f06 a793 a6c6 0886
000002b0: 8b08 0080 3860 0800 2b28 0e05 2530 9093
000002c0: ca15 0000 c709 1905 1e03 0080 f009 0080
000002d0: 1504 0080 2706 0080 5e14 0000 ce20 0080
000002e0: 2108 0080 9927 0000 d419 0000 5a11 0000
000002f0: d918 0000 967d dea7 4e5f 8ea6 11cc 9b9f
00000300: d89b 9ba1 a12e 10a0 2c71 7d9a f295 409e
00000310: 5a5a 7998 d474 539e 3d29 36af ea72 b3a2
00000320: 9838 6e99 090d 7eb1 8045 8ea6 f4af 15a2
00000330: aabb ddb0 959a bd9f a0fc e99c 3003 0080
00000340: c404 0080 851d 0080 7a07 0080 5825 0000
00000350: 021c 0000 4912 0000 a6a9 ff80 981c 0080
00000360: 89e1 c19e 3659 079a 058e 019e acea 7c9d
00000370: a865 bc0d b611 2493 2126 bd9c 65fa 7c92
00000380: df05 ee99 e2e4 51af 954d d29e 9540 0f9f
00000390: bd10 61ac e0ca 0b85 0029 af80 0f8a 6eae
000003a0: fc65 8287 04bc 6388 8c8a a5a8 7e93 e29b
000003b0: b9ee a796 7f60 f5a2 ece3 c287 c217 1b09
000003c0: 568f f0a3 c835 5188 0109 0080 0008 0080
000003d0: 1522 0080 3110 0080 6713 0000 8b1b 0000
000003e0: 7c1c 0080 7b25 0000 7107 0000 3725 0000
000003f0: 4ba6 5193 c30b 3d9f d002 0e9c 16c8 c90d
-6.2000795e-13 -9.001023e-15 -1.0500845e-15 -6.8901663e-19 -9.745693e-23 -1.8935648e-25 -1.03416585e-17 -5.039585e-18
-1.7150043e-23 -1.145545e-17 1.4936624e-36 -1.5508457e-33 -1.3067379e-23 -1.1461e-41 1.1408e-41 -4.3153687e-26
1.1245e-41 -7.264e-42 -1.5088305e-14 -3.559917e-14 -3.1331704e-15 -6.1133286e-17 -4.1537643e-16 -1.1369817e-18
-4.3706036e-18 -1.6416518e-18 -1.4953668e-20 9.76e-42 9.778e-42 -3.601e-42 1.8814985e-31 5.977e-42
-1.3646e-41 9.643275e-31 -2.172e-42 -1.0279e-41 -1.938429e-16 -6.112855e-23 -9.9078377e-29 -2.6196026e-16
-4.66578e-24 -1.878752e-24 -1.691884e-16 -8.502305e-25 -3.5736273e-27 -1.33776e-08 -6.8146533e-09 -5.7169247e-09
-1.5092235e-08 -7.261625e-09 -7.7041085e-09 -1.4312959e-08 -1.3023752e-08 -5.09884e-09 -2.3753308e-12 -7.083037e-19
-1.5259014e-20 -3.2798694e-11 -4.383883e-21 -2.0671885e-23 -3.7469133e-13 -3.728622e-24 -2.9211812e-26 -5.954e-42
7.987e-42 -4.926e-42 7.135e-42 -1.261e-41 -1.648e-42 -6.829e-42 8.419e-42 5.661e-42
-1.3009581e-21 -2.8578607e-23 -4.585676e-25 -9.480385e-35 -9.372e-42 9.415e-42 4.02187e-40 1.3308e-41
-1.3643e-41 -1.1893e-41 -1.64e-41 8.346e-42 4.476e-42 2.047e-42 -1.931e-42 1.008e-41
-5.2957983e-25 1.1148733e-31 -2.44227e-07 -5.232827e-12 -5.845782e-14 -1.7830478e-08 -3.3031393e-17 -4.1777245e-18
-4.9680214e-08 -1.7997227e-18 -2.0557864e-22 -7.1922934e-25 -1.9868544e-27 4.1008e-41 -5.457228e-30 1.3443168e-30
5.0142633e-36 -4.558984e-25 1.3207588e-30 3.2613085e-31 -1.7639506e-15 -3.8310144e-19 -2.8639753e-22 -5.291163e-23
1.5374432e-31 1.6483846e-36 -1.6711534e-26 -5.178507e-39 -4.102e-42 -2.3945818e-17 8.94e-43 2.853e-42
-9.545182e-18 -4.7869675e-29 -6.8276586e-38 -1.0565391e-15 -1.5792322e-25 2.3161949e-36 2.2348e-41 -1.106e-41
9.016e-42 4.0887e-41 5.004332e-31 1.48588e-40 4.9219593e-36 -3.251559e-26 5.9765504e-36 -2.8105825e-31
-3.8669305e-38 -9.862e-42 -2.5721517e-19 -6.4097944e-26 -1.3773724e-27 -7.000809e-22 7.2439096e-31 1.4490262e-30
7.2255456e-31 8.415e-42 1.3597e-41 -3.4080543e-29 -8.0722783e-28 3.3601276e-31 -3.2755804e-26 -4.0169446e-28
-5.980793e-24 -1.9838e-41 1.6293e-41 2.259e-41 -1.2672e-41 -1.7157e-41 1.553e-42 -4.767e-42
1.481e-41 1.7844e-41 -8.7716446e-21 -8.189642e-22 -2.3669604e-24 -1.7220878e-22 -3.8869418e-25 -8.4184586e-26
-1.9980943e-22 -2.5043945e-23 -4.2162948e-27 -2.57247e-35 -3.065e-42 7.69201e-40 6.6841856e-36 -3.6398185e-27
7.816e-42 7.195821e-36 -1.118e-42 -3.565e-42 -1.464e-42 -2.207e-42 7.306e-42 -1.1768e-41
-2.916e-42 1.4205e-41 9.265e-42 6.225e-42 8.914e-42 -6.175354e-15 -9.879062e-16 -6.598265e-20
-1.054446e-18 -1.2212703e-19 -5.2410593e-23 -1.0195403e-20 -3.2228112e-24 -1.11944065e-20 -1.6567454e-10 -4.8639717e-18
-1.2315741e-23 -3.6969274e-09 -9.872067e-16 -2.0286414e-18 -1.6133204e-09 -8.030035e-20 -1.5483949e-21 -1.143e-42
-1.71e-42 -1.059e-41 -2.682e-42 1.3396e-41 1.0047e-41 6.56e-42 -2.347891e-38 -1.0258e-41
-2.0527949e-20 -2.798941e-23 -6.858572e-21 -3.3473245e-21 1.1610867e-30 -2.0708442e-27 -1.2516827e-21 -7.9825814e-28
-2.4610995e-23 -1.9089755e-10 -2.2266702e-20 -3.033485e-20 -3.1983715e-12 -6.573011e-36 -1.608592e-38 -5.4237555e-11
-1.9620167e-34 -6.853134e-34 -1.8378765e-14 -3.7483878e-22 -2.713096e-25 -6.6509552e-18 -2.9323836e-34 1.8668617e-33
-2.6081557e-17 -6.295687e-34 -3.23e-42 -2.87e-42 -1.2226e-41 -5.808e-42 6.96e-42 9.88e-42
-1.0218e-41 1.3445e-41 2.67e-42 1.335e-41 -2.6461497e-27 -4.0032036e-20 -4.6987494e-22 1.243575e-30

hidden1.bias f4 [256]
00000000: 935b 2eaf bcaf 7a93 f120 7bbb 886b c70a
00000010: 6819 ceb9 3a88 2f9c 8524 0fab 6b13 d4ba
00000020: 2907 353c b3ed af3d 2240 69b1 42ed 07b9
00000030: fff6 ddb8 b4d9 aabb 8b7f 34b3 7b63 98b7
00000040: 501b 9cb8 058b a4b6 9857 dcbc 40b4 9d98
00000050: bc83 0cbd 0dd0 9a8e d0a7 d6b9 8680 3d3d
00000060: 49a5 cea0 6a0b 568d ffc1 94b7 4666 06b4
00000070: ed42 5737 a900 e33d 0d29 2eb9 159a 41ba
00000080: 7402 0000 ab6e 98b4 f55b 8d00 454d 9098
00000090: c10f be3c 055a 0000 9355 8fba 6a5a 60bb
000000a0: 366c 21ad f193 07bd dd32 94ab 04f2 328f
000000b0: 6d4f 0280 647d 1ebc 81d0 47b3 f374 8c9a
000000c0: cb7e 873c b2d2 87b3 62b0 6198 8ff8 518a
000000d0: f907 f1a0 cce5 48aa 9140 6b3d 3c62 993d
000000e0: 23d8 04a6 675c 68bc 9709 9c9f 402b 1415
000000f0: 1595 e996 94e5 463c b939 61b9 c587 c33d
00000100: 8b69 f7ba 9343 d7a8 b119 10a7 cd3d 7ca5
00000110: f79c 750b 966d e91c eb2b f2bc a87f c5bc
00000120: 6824 ca3d 2860 1fab 5ad5 63bc 0cfe 8fb8
00000130: c65b f6b4 2d8a 74ad 1d7c a3bc fa5a 143e
00000140: eb26 9fb7 3301 d9b7 8141 d79d 9a3f 1cbd
00000150: 5697 14af d563 05ab 56d5 483d 8364 f1b7
00000160: cd32 cdb7 4000 d4b4 145e 7e31 e979 70a7
00000170: 595f 5e3a c5cd 449a 7334 1abd 20e5 efa5
00000180: 2244 a3b9 373d f73d 889e 0e00 55a9 1526
00000190: 430d 98b9 c607 9ea2 b34d c4b1 064f 69bb
000001a0: 183b 353d f895 03bd 8143 ae8d f46a 28bd
000001b0: 1611 02b6 94b9 2bba 4d3e bfb8 833e a7ab
000001c0: 0d6a 6eb6 d6d6 c8ae 387d 8faa ab9a b4bc
000001d0: 1d96 023e 0719 c5a7 11a9 741e 8c6e dcbb
000001e0: a036 9098 7704 3dbc 8519 c6b8 e5aa c18f
000001f0: b396 7595 4275 70b7 4490 89af 5ead d3bc
00000200: b3c5 3db5 8b67 4a3d d210 e58e bfc4 023b
00000210: 486c 31bb 3812 e4ae f61b 49b3 a7c6 01a3
00000220: 153b f4b6 4424 28b9 1965 faac b338 41b0
00000230: 75f1 173e bfd2 1daa d4b8 c8bc dcee 9bb8
00000240: b68d 54a8 d587 10bd 34b7 013e e49e 2990
00000250: 30bf 27bc 00bd adbb 38d2 abb1 9b14 213a
00000260: c3fd db3d 1ea0 d33d 735a eda7 8d7b 953d
00000270: b9ed a3b4 a103 1aba 2e60 3fb6 654c 4d3d
00000280: d330 b496 cc1a 39b8 47b6 9eb8 3454 36b7
00000290: c7b8 253e faf2 afab 18dc 3cb1 8002 cfba
000002a0: 2054 74bb 8f72 970f 66c1 40b9 e8fd 153e
000002b0: 0ae0 2da9 2739 caae cc5a 84b3 c47c 133e
000002c0: e01d a23d f3b3 6bb4 f9f8 163e edcf 7db6
000002d0: 334f 533d 1a4a 343e 450e 87bb 4d76 a4bb
000002e0: c1b9 6ab6 d4b7 b33d b828 4aa8 97ac dbbc
000002f0: a75e 2296 45ff a9b4 d066 1f3e 1d25 5e3c
00000300: a57a 61ac 055a 0d3e 2c3f 1297 0d97 84a3
00000310: b4a9 f63d 9544 a68a 9d8e bcac 1d0f 70bb
00000320: 40cb 083d ab24 c8b1 8431 babc 9f28 760e
00000330: fb04 63bb 1af5 b7ae 1a18 9435 e507 143b
00000340: 0a99 05b9 3b1b 87b3 9d20 779f c092 78bb
00000350: c624 c0bb ef8f da9b 70ab ec81 a69c f23d
00000360: 5885 5eb9 d795 843d aa21 8c9f 2f7d b5b2
00000370: 4858 0aba e8b7 9fbb 74c8 c1ad b721 ccb4
00000380: 6b27 873c 7cfb ad3d 978a 0ba8 41a4 06b1
00000390: 605b c93d 03fe 4f02 2645 608a fe08 64bb
000003a0: dd41 109a 7d80 8a23 665b cc3d e436 82a7
000003b0: 983f 54a4 5fc2 84b5 a710 d8b7 e9d2 e93c
000003c0: 18d2 72ba 1b1c 84bb 1fba 40bc bd1a 9f3d
000003d0: 5225 0ea0 9a1c b505 868e 4f3d c634 7ebb
000003e0: f132 62b6 98ee 19b7 48fa 153d fdfb 1cb2
000003f0: 7b74 8800 96b1 988e e17b 03bd ffc6 0bbc
-1.5857742e-10 -3.164108e-27 -0.0038319195 1.9203452e-32 -0.0003931031 -5.807871e-22 -5.0854487e-13 -0.0016180103
0.01104907 0.085902594 -3.3942418e-09 -0.00012962989 -0.00010584108 -0.0052139405 -4.2025516e-08 -1.8166136e-05
-7.443747e-05 -4.903765e-06 -0.026897237 -4.0765555e-24 -0.03430532 -3.8164277e-30 -0.0004094229 0.046265148
-3.5007134e-19 -6.595758e-31 -1.7733311e-05 -1.251693e-07 1.2830581e-05 0.1108411 -0.00016609226 -0.0007385326
8.8e-43 -2.8392728e-07 1.2981793e-38 -3.730115e-24 0.023200871 3.2293e-41 -0.0010935537 -0.0034233578
-9.175818e-12 -0.033100072 -1.053015e-12 -8.822688e-30 -2.12164e-40 -0.00967345 -4.652293e-08 -5.8091585e-23
0.016539952 -6.3247526e-08 -2.9169619e-24 -1.0109733e-32 -4.0832264e-19 -1.7843295e-13 0.057434622 0.0748944
-4.608962e-16 -0.014182187 -6.6084435e-20 2.992248e-26 -3.7737264e-25 0.012139697 -0.00021479175 0.0954738
-0.0018876059 -2.38991e-14 -1.9997942e-15 -2.1878455e-16 4.730337e-32 1.5446974e-21 -0.029561957 -0.024108723
0.09870225 -5.662159e-13 -0.013905847 -6.866091e-05 -4.5887845e-07 -1.3900475e-11 -0.019956643 0.1448783
-1.89724e-05 -2.5868974e-05 -5.6977756e-21 -0.038146593 -1.3514287e-10 -4.7389637e-13 0.049031578 -2.8776243e-05
-2.446156e-05 -3.948826e-07 3.7015342e-09 -3.3372778e-15 0.0008482836 -4.069807e-23 -0.037647676 -4.1615152e-16
-0.00031140546 0.12072223 1.342567e-39 5.1924247e-16 -0.0002900158 -4.2834216e-18 -5.713184e-09 -0.003560008
0.04424581 -0.032125443 -1.0739829e-30 -0.041117623 -1.9381455e-06 -0.00065507856 -9.119194e-05 -1.1883414e-12
-3.5526493e-06 -9.1331095e-11 -2.548879e-13 -0.022046408 0.12752576 -5.470562e-15 1.29522146e-20 -0.0067270454
-3.7278285e-24 -0.011536709 -9.446129e-05 -1.9097096e-29 -4.9596237e-26 -1.4332416e-05 -2.5022662e-10 -0.025839504
-7.0695677e-07 0.049415153 -5.6469056e-30 0.0019953696 -0.0027072597 -1.0371476e-10 -4.682439e-08 -7.03517e-18
-7.2786447e-06 -0.00016035239 -7.1166515e-12 -7.0293565e-10 0.14838202 -1.4017518e-13 -0.024502195 -7.435467e-05
-1.1799093e-14 -0.03528579 0.12667543 -3.3451778e-29 -0.010238454 -0.0053020716 -5.000654e-09 0.0006144733
0.107417606 0.10333274 -6.587878e-15 0.07298956 -3.0534082e-07 -0.00058751745 -2.8517202e-06 0.050121684
-2.911138e-25 -4.4132394e-05 -7.567979e-05 -1.086765e-05 0.16183768 -1.2501937e-12 -2.748271e-09 -0.0015793592
-0.0037281588 1.4933876e-29 -0.00018382593 0.14647639 -3.860804e-14 -9.196049e-11 -6.163245e-08 0.14403063
0.079158545 -2.1951546e-07 0.14743413 -3.7820967e-06 0.051589202 0.17606393 -0.004121574 -0.0050189854
-3.497684e-06 0.08775297 -1.1222082e-14 -0.026815696 -1.3116123e-25 -3.1664436e-07 0.15566564 0.013558653
-3.2042505e-12 0.13803871 -4.725488e-25 -1.4375441e-17 0.12044087 -1.6011016e-32 -5.3591146e-12 -0.0036630102
0.03339696 -5.8249348e-09 -0.022728689 3.03414e-30 -0.003464042 -8.365415e-11 1.1033874e-06 0.0022587713
-0.0001274088 -6.2913806e-08 -5.233126e-20 -0.0037929267 -0.0058637587 -3.615809e-22 -8.693871e-38 0.118462846
-0.00021221244 0.06473892 -5.9348e-20 -2.11281e-08 -0.0005277437 -0.0048742183 -2.2030579e-11 -3.8022492e-07
0.016498288 0.084952325 -7.746102e-15 -1.9592934e-09 0.098318815 1.5280856e-37 -1.0798213e-32 -0.0034795399
-2.9831706e-23 1.5016407e-17 0.0997837 -3.614176e-15 -4.6024038e-17 -9.891336e-07 -2.575696e-05 0.028542953
-0.0009262874 -0.0040316707 -0.011763125 0.07768772 -1.2040216e-19 1.7031665e-35 0.05067303 -0.003878878
-3.3706276e-06 -9.175063e-06 0.03661564 -9.137691e-09 1.2531413e-38 -3.7641902e-30 -0.032100562 -0.008531331

hidden2.weight f4 [256, 256]
00000000: 6545 8f26 7eef 8821 2a54 ca3b b70f 0080
00000010: 140e b7bc dc59 1714 cb16 8134 01ae 9cbb
00000020: af2b b2bd d29a a03b 6f83 a6b5 1518 49ba
00000030: 8aa4 85b7 a312 c53c cbba c9b7 cd4f 683a
00000040: 15ce 87ba fb39 26ba 953c 18bd d69a a42b
00000050: bbdf a0bc 66a4 828c 3998 fb3b 59b7 72bd
00000060: 95e9 c1ae bdca cdac a2ae cab8 faf6 f238
00000070: 4c6c 0a34 879d 2cbc c0b0 b0ba 764b 9ab7
00000080: 156f c08f 0dc1 b537 8a68 8822 cd9e 19a0
00000090: 2f5f a83d f000 952f 98bb 353c 3790 ae38
000000a0: 6d6b 8537 0f20 abbb 306d d133 3634 b3ac
000000b0: c952 9428 bb89 6abc 8376 ebb5 53af 70b0
000000c0: 7c14 31bd dcfb acb2 1d69 f42d e5e5 4db4
000000d0: b1b3 8c1d fced 8932 3954 f83d c579 23bd
000000e0: 8947 f32d d4f2 2a3c 6e2d 68b3 75a1 cfa2
000000f0: dae5 9128 22b2 f83c b249 2bb8 ab2c 833c
00000100: f22e 4ebc f6a3 acaf 616a 6334 d9e3 6627
00000110: d195 bb82 3b16 369e 590f a83c cb6f eebb
00000120: 3e3b 24bc ef8f 7836 79f2 393c 21e8 53bb
00000130: d113 d233 d7a8 3316 7024 d73c 09fc 7b3d
00000140: dc28 053b 0618 24ba 3a3d 61a8 50ae adbb
00000150: dcde b738 d060 d2af 0890 d53a 3364 113b
00000160: 151c 5bb8 c7cb e936 8b08 04b2 471d bc34
00000170: 0e84 3038 6843 6089 07ac 293d 8f2b 68b1
00000180: 84cf 843b 5177 1a3d 0d5d 29ac 2eb2 57a4
00000190: d2b9 8135 b8a6 aa34 19ca 14b8 5442 b1ba
000001a0: a228 133d c436 1bbc 44cd a028 6aa3 983d
000001b0: 6bad 94b1 2ce0 10b9 66cc 0e3c d50a df37
000001c0: 7b89 3839 28c8 0a25 846f f332 5861 083c
000001d0: f082 233e 1825 8ead a967 0c8b 757b 2b3b
000001e0: 9379 b8a3 8dbb 63bc 338d 1236 f072 6e26
000001f0: bc15 1c26 38cc 263a 9d28 312a 701d a4bc
00000200: 611c b3af 151c d6bc 6481 0f8d 01f2 13b8
00000210: 6490 b639 32eb 5b36 799d 0bba c28a 1986
00000220: ac70 02ba 6e1a aab7 362a bc32 c48b 5a39
00000230: 3447 833d bcbb 0928 aa68 54bd 0319 e8b9
00000240: 75d4 af23 1d02 7a3c 92c0 8d3c 4399 960f
00000250: 6aca 89bc 47fb fc3a 59c9 0234 b2de 49b6
00000260: 9739 7e3c 0622 7bbd 1cc1 cb35 dd0c 553e
00000270: c112 d9b1 7eeb 5738 de33 1cb3 3dfd b4bc
00000280: 32fe c72e 3128 5e39 af1a 453a db86 b0bb
00000290: 5812 433d 923f 2434 8a44 2236 914b 6aba
000002a0: a720 3ebd 73ba a726 8537 c439 f086 82bd
000002b0: 1762 2ea8 f321 2baf 146d 6cad b0c9 c8ba
000002c0: c768 05bd 81b9 eab3 1b72 26be 105d 213a
000002d0: 9b1d 5f3c 35ad 173a 4019 193c 39e1 afb7
000002e0: 5e78 fcb7 0ab1 a43d f79a 1438 1135 07bd
000002f0: 2a87 fd2b 1d68 55b5 e6cd c23c 3a3a dabd
00000300: 6332 92b5 db6b 913d 9008 0080 9c0c cbb0
00000310: a479 e0bb 3c15 02b0 2758 fb18 cce1 033c
00000320: 4ec2 7e3c b11f 32b9 9941 20bd 9722 0080
00000330: 0bab 3e3c 06a7 b5b5 6865 6bb3 d16e a037
00000340: 4a29 bf36 47cd 2c3a 62fd 412c ea36 11bc
00000350: 5f1e b23b f8a3 28b4 4716 0080 05df 733d
00000360: 3cdd 18b7 707a 35be a3f0 c99f 028c f138
00000370: 79a3 633b 5aaf 96bc 8534 94ac 5838 9a37
00000380: 3c9a 4939 22a2 cbbd 8c75 9ba3 8a9d d735
00000390: cfa2 fb3d fb49 c980 0f20 d823 6e50 263c
000003a0: 8eef 00a8 6775 5220 8c1a c03c 439a 0127
000003b0: c18e a42f 38dd 99b8 004a 883a 956d 983d
000003c0: caee a1bb b68f 6d3b bfc8 df3c c0f7 6b3d
000003d0: c8b5 8037 93c5 488c f16a be3d 7549 413b
000003e0: 9d62 1f36 2f41 ac39 7487 063b 78f4 b4b7
000003f0: 144d 9dae ead7 a3a4 5019 c7bd 5bcf 863c
9.941428e-16 9.279112e-19 0.006174584 -5.637e-42 -0.02234558 7.6412734e-27 2.4044706e-07 -0.004781485
-0.08699738 0.0049012685 -1.2406216e-06 -0.000767113 -1.5931455e-05 0.024056738 -2.404805e-05 0.0008861989
-0.00103611 -0.0006341037 -0.03716715 1.1695876e-12 -0.019637933 -2.0128615e-31 0.0076780585 -0.059256885
-8.8181164e-11 -5.848959e-12 -9.6646385e-05 0.00011585462 1.289165e-07 -0.010535604 -0.001348041 -1.839337e-05
-1.8975449e-29 2.1666778e-05 3.697356e-18 -1.3012147e-19 0.0822128 2.7103608e-10 0.011092089 8.323829e-05
1.590486e-05 -0.0052223275 9.752182e-08 -5.0932826e-12 1.6467203e-14 -0.014315064 -1.7543356e-06 -8.756064e-10
-0.043232426 -2.0137968e-08 2.7786268e-11 -1.9175748e-07 3.724349e-21 1.6057122e-08 0.12125439 -0.03991105
2.765767e-11 0.010433871 -5.4058027e-08 -5.627841e-18 1.6197916e-14 0.030358378 -4.083821e-05 0.01601251
-0.012584435 -3.140312e-10 2.1179723e-07 3.2042428e-15 -2.756317e-37 -9.639597e-21 0.02051513 -0.0072765104
-0.01002389 3.703866e-06 0.011349314 -0.0032334405 9.7824916e-08 1.4512781e-25 0.026262492 0.061519656
0.0020318544 -0.0006259683 -1.2503285e-14 -0.0053003207 8.767631e-05 -3.8267567e-10 0.0016293535 0.0022184968
-5.2239822e-05 6.967664e-06 -7.685354e-09 3.503903e-07 4.2084655e-05 -2.6994713e-33 0.041423824 -3.3785204e-09
0.004053058 0.037711445 -2.4067998e-12 -4.6771617e-17 9.66533e-07 3.178627e-07 -3.5474168e-05 -0.0013523796
0.035927422 -0.009473506 1.7852588e-14 0.07453044 -4.3270822e-09 -0.0001381642 0.008715725 2.6588716e-05
0.00017598823 1.2037408e-16 2.8339635e-08 0.00832399 0.15967917 -1.6160004e-11 -2.7041004e-32 0.0026166115
-2.0000809e-17 -0.013899696 2.1837884e-06 8.2728607e-16 5.415283e-16 0.00063628284 1.5734849e-13 -0.020033568
-3.2580075e-10 -0.026136437 -4.4221025e-31 -3.5272915e-05 0.00034821325 3.2770445e-06 -0.00053258945 -2.8878045e-35
-0.0004975896 -2.0277887e-05 2.1905276e-08 0.00020842167 0.06410065 7.645736e-15 -0.051857628 -0.00044269123
1.9063517e-17 0.015259293 0.017303739 1.4850176e-29 -0.016820151 0.0019300961 1.2180443e-07 -3.008096e-06
0.01551666 -0.061311744 1.5180881e-06 0.20805688 -6.3176633e-09 5.1479314e-05 -3.6368753e-08 -0.02209341
9.0946264e-11 0.00021186542 0.000751893 -0.00538717 0.047624916 1.5296817e-07 2.4179776e-06 -0.0008937652
-0.04641786 1.163849e-15 0.00037425398 -0.063733935 -9.68021e-15 -1.556442e-10 -1.3439267e-11 -0.0015318897
-0.032570627 -1.0930217e-07 -0.16254465 0.000615553 0.013617898 0.0005786003 0.009344399 -2.0966503e-05
-3.0096791e-05 0.0804158 3.5430272e-05 -0.033009592 1.8014247e-12 -7.950019e-07 0.02377982 -0.10655637
-1.0892512e-06 0.0710065 -3.072e-42 -1.4773778e-09 -0.006850438 -4.73239e-10 6.497099e-24 0.00804944
0.015549256 -0.00016987209 -0.03912506 -1.2408e-41 0.0116374595 -1.3534161e-06 -5.480743e-08 1.912509e-05
5.6970503e-06 0.0006591868 2.7567605e-12 -0.00886319 0.0054357494 -1.5705871e-07 -7.992e-42 0.05953886
-9.111416e-06 -0.17722487 -8.552491e-20 0.00011517854 0.0034734888 -0.018394161 -4.212244e-12 1.8384468e-05
0.0001922631 -0.09943034 -1.6854917e-17 1.6064598e-06 0.12286913 -1.8485474e-38 2.3432344e-17 0.010151012
-7.1573725e-15 1.7826537e-19 0.023450159 1.7985972e-15 2.993286e-10 -7.336814e-05 0.001039803 0.07442776
-0.004941796 0.0036248988 0.027317403 0.05760932 1.5343438e-05 -1.5466895e-31 0.09297741 0.0029493247
2.3750247e-06 0.00032854962 0.0020527514 -2.1571512e-05 -7.153225e-11 -7.1055754e-17 -0.09721625 0.016456297

hidden2.bias f4 [256]
00000000: dfb5 8f3d 304c b13d d140 77bc f505 96b6
00000010: 0790 723d f80b df3d 119d 06bc 403a b9bb
00000020: 7cd7 c7b7 d30d 18b7 4838 42b5 2e3b d4bc
00000030: fa75 073d b633 65ba 340d 753c d050 7eb6
00000040: 0d5c e53d ceb1 a13d 5d29 013e 5df6 27ae
00000050: 9433 f6bc 9e30 8b3d 7284 453d fd0d 8bb7
00000060: d278 bc3d ca18 693d 02bc 823d e1db 183d
00000070: 0ada 9eb2 4f58 afb1 984f e73d 79d8 363d
00000080: 10b9 c4b9 dc8e 0aba 630e 16b4 46ed 273d
00000090: 36d5 8b3c f085 1d3d a26d 9a3d 212b 723a
000000a0: 2963 6d3d 7973 0b3d d15c 37bc 967e 19b5
000000b0: b38d ac3d 915a 203e 2e5d ba3d 2a26 bf3c
000000c0: f878 c73c 4521 993d 5c5e 0a3c 17ea fdb4
000000d0: bc87 46b8 7e83 f83c cba8 593d 09b0 d4b9
000000e0: 3442 483d 63d8 b33d a239 023d 01b2 583d
000000f0: 2073 ea3d c5c3 72ba 7256 eab9 64bc 1cb5
00000100: 8408 563d 7e1d c43d c6c6 ddbc 2734 2a3d
00000110: e142 adb5 c84b 7d3d 976e 8bb8 965d 03b6
00000120: addc fd3d 3991 9c3d 396c e23d d344 29bc
00000130: 3b25 c03c 87ce 043e 9cf7 db3d 6f90 9db9
00000140: 238b 483d 18a2 7f3d fd1d 143e ccfa 313d
00000150: 0d46 ef3c 0629 2db3 b382 053d 4ce4 5ab6
00000160: e3fc 97a6 d9c5 5a3d 7ec8 913d 9cce ad3c
00000170: b2f5 f43d f98d c7b4 b5b4 5a3d 12c1 4abc
00000180: d072 bfba 36cd 5e3d 3d8e a73b 70f2 eeb2
00000190: 60af 223b 66d9 a03c a499 e73d d92a aabb
000001a0: 9d29 813d 8af4 873d 515c 873c 6336 123d
000001b0: c8a3 e73d a4d1 f6b3 0917 bcb6 cc76 dfbc
000001c0: 6e0c 863d 6600 183d 6fd3 97b9 c468 e4b1
000001d0: 0b40 f63b 4b1d 183d a122 833d b1b3 383b
000001e0: 7008 033e c904 c33d e86e 82bc 2cea 873d
000001f0: f346 d7b0 a677 773d 65c5 79af c757 713c
00000200: b96e 84bb 4d1e df3d f2fe 9038 1c9c a93d
00000210: 6c18 0f9f 67c5 503c 4301 aeb4 f576 0e3e
00000220: 47fa b63d 57a9 1f3d 76cb cab6 530c d9b9
00000230: a7b0 f93d 65a9 363d 1bc4 383d 855d 16bb
00000240: f5c2 403d 4937 35b7 710b 9ab8 3653 c93d
00000250: 1fb0 f23c a08b a5b5 e3db 93b6 61fa 3e3d
00000260: 2a4e 3c3d 67ff 8cb8 47e0 7f3d 20fa 003e
00000270: 87b3 263c 15b6 ee3d de1d 123e 7732 0eb9
00000280: a764 d5bc ac32 11ba 2e2a 123d 375f ea3c
00000290: 9a0e ad3d ad4b 403d ce5b 3aba ba98 3fb5
000002a0: ea7a 82b8 3947 b13d 5dc4 85a2 060b bb3d
000002b0: ac30 c33c 255e 4f3d 060c 84ba ace0 bb3d
000002c0: ae59 b6ba 34b7 89bc bbd6 31bb 8c00 12bb
000002d0: ff18 143d 2553 a83d ed03 8d3d 2af5 42b5
000002e0: 16d6 fc3d 89e3 d6bc 4bcc 5b3d e8cf bc3d
000002f0: b6f2 bbb5 927d b53d 191e 813d 810e 913d
00000300: a7eb 903c 810c c33b f9c8 033d 7311 5c3d
00000310: d8b1 8fb6 fd2b c33d 65b8 bb3d 18a4 ba3d
00000320: fcca aeae 5621 63b3 4ea6 203d 639a a43d
00000330: cd8a 803d 60f7 023a 935b 3d3c af76 873d
00000340: f1fd 9e3d 706b f43d 2a37 29b6 11d7 383d
00000350: a5a9 993d 124a a13d 100d a93d c4a3 313e
00000360: bbd4 fab3 e60e f53d 4fb8 1e3d f9ba fd3c
00000370: 7be9 afbc f736 933d c43c 1d3d 5fed fdba
00000380: dbe5 ef3d 076c b93d 2b1b 0a3d 1bcd 1cb7
00000390: 1724 b53d 1bd3 4fb4 be2b cfb8 0e79 1ab3
000003a0: 9956 883d 8e06 0c3e 7c21 87bc 132a ab3d
000003b0: 7121 f63d 3195 803d d01d dbb8 b33a ea3d
000003c0: 7732 ac3c 4a33 2b3d df6b 11bc 449c 9a3d
000003d0: feaa 343d f8bd 4d98 f679 a63d d620 d1b4
000003e0: d5b3 3f3d 4a89 33b8 6a1a 013e af07 48bb
000003f0: 662f cf3b 19b3 a03d e8e7 6b3d 7ae7 ee3b
0.07017111 0.0865711 -0.015091137 -4.471042e-06 0.059219386 0.10890955 -0.0082161585 -0.005652696
-2.3822991e-05 -9.063125e-06 -7.235253e-07 -0.025907125 0.033071496 -0.0008743362 0.014956761 -3.7895988e-06
0.11199198 0.07895242 0.12613435 -3.819022e-11 -0.030053891 0.06796382 0.048222013 -1.6576605e-05
0.09202732 0.056908406 0.06383516 0.037319068 -1.8492774e-08 -5.10321e-09 0.11294478 0.04464004
-0.00037521916 -0.000528557 -1.3975072e-07 0.040997766 0.01706944 0.03845781 0.07540442 0.0009237994
0.057955895 0.03404567 -0.011191563 -5.718115e-07 0.084254645 0.15659548 0.09099804 0.023333628
0.024349675 0.07477049 0.008445349 -4.7295245e-07 -4.733329e-05 0.030336138 0.05313949 -0.00040566947
0.04889126 0.08781507 0.031793244 0.052904133 0.114477396 -0.00092607393 -0.00044696365 -5.8388673e-07
0.052254215 0.09575938 -0.027072322 0.041553643 -1.2908969e-06 0.06183985 -6.6486355e-05 -1.9574995e-06
0.12395606 0.076448865 0.11055798 -0.01033135 0.023455253 0.12969409 0.10740587 -0.00030052985
0.048960816 0.062410444 0.14464565 0.04345207 0.029208208 -4.0317012e-08 0.032595348 -3.2617418e-06
-1.0546275e-15 0.05341134 0.07118319 0.021216683 0.11960925 -3.7169937e-07 0.053394992 -0.012375133
-0.001460636 0.054394923 0.0051133917 -2.7817094e-08 0.002482377 0.019634914 0.113086015 -0.005193096
0.06306765 0.06638439 0.016523512 0.0356964 0.11310536 -1.1493401e-07 -5.6055183e-06 -0.027278326
0.065453395 0.037109755 -0.00028958495 -6.647584e-09 0.0075149587 0.03713731 0.06403089 0.0028183276
0.12796187 0.09522397 -0.015922025 0.066364616 -1.5663474e-09 0.06041684 -2.2716547e-10 0.0147304
-0.0040415195 0.10894451 6.913942e-05 0.082817286 -3.030163e-20 0.012742377 -3.2410944e-07 0.13912566
0.08934455 0.038979854 -6.043755e-06 -0.00041398648 0.12191897 0.04459514 0.045108896 -0.0022943926
0.047060926 -1.0801313e-05 -7.3454234e-05 0.09830324 0.029624997 -1.2334094e-06 -4.4065396e-06 0.0466255
0.04597298 -6.7232926e-05 0.062469747 0.12595415 0.010174639 0.11655823 0.14269206 -0.00013560975
-0.026048971 -0.0005538862 0.035684757 0.028609855 0.08450051 0.04694717 -0.0007109017 -7.137529e-07
-6.2217776e-05 0.08656163 -3.625763e-18 0.09132962 0.02382692 0.050626893 -0.0010074384 0.09173712
-0.0013912225 -0.01681099 -0.0027136046 -0.0022278158 0.03615665 0.082189836 0.068855144 -7.262739e-07
0.12345521 -0.026231544 0.053661626 0.092193425 -1.4003224e-06 0.08861841 0.06304569 0.070828445
0.017690493 0.0059524183 0.032174084 0.05372758 -4.282436e-06 0.095298745 0.0916603 0.0911333
-7.948661e-11 -5.2882875e-08 0.0392211 0.080372594 0.06276474 0.0004995968 0.0115574775 0.06614434
0.07763279 0.119345546 -2.5215072e-06 0.04512698 0.0750306 0.07875456 0.082544446 0.17347628
-1.16802276e-07 0.11965732 0.03874999 0.030972945 -0.021473637 0.07188218 0.03838803 -0.001937311
0.11713763 0.09053808 0.033717316 -9.346079e-06 0.08844774 -1.9355177e-07 -9.878677e-05 -3.5966018e-08
0.06657142 0.13674375 -0.016495459 0.083576344 0.12018097 0.06278456 -0.00010448287 0.11436977
0.021020157 0.04179696 -0.008875816 0.075493366 0.044108383 -2.6591539e-24 0.08128731 -3.8953175e-07
0.04680236 -4.2804786e-05 0.12607732 -0.0030522158 0.006322789 0.0784666 0.05759421 0.0072907778

hidden3.weight f4 [10, 256]
00000000: a625 cebc 938e f43c b46e fd3c ed0c bbb9
00000010: c328 cbbd 3675 7e3c fa3c 0bbc 8739 a63a
00000020: 4087 0238 299f b33a 087f 8ab4 ede5 5cbc
00000030: 55dd fe3d ff25 89b9 6568 2dbe dbd6 0a3a
00000040: 57f8 1d3e 37d9 cbbd 3d88 473e ec71 c1b7
00000050: e4e8 bf3c a658 ee3b 60c5 3dbe 06bc 203a
00000060: b15b d13d 101e f5bd 1cab 133c b88c 0b3e
00000070: 6884 e3b2 ffc1 3038 405a 42bc 14e8 01be
00000080: e9cb a2b9 8bcd 2c3b b518 fdb2 af01 1f3e
00000090: c45c 043e 7fda 183e 9f3a 003e 8358 04be
000000a0: 6a55 c0bd 00c9 77bd fc09 123c d9c3 2838
000000b0: 6afa 863d 4aaa 4f3e 3d0d f4be 37dc 2d3e
000000c0: f7a0 42be f098 9abd 91f0 b2bd ee00 2cb5
000000d0: 27d8 1e39 26fe 28be 4f64 1a3e ac2b 9839
000000e0: 7120 743e 9a74 073e 1d97 8abe 824d b73d
000000f0: f1db 5abe 6bd8 b5b9 cffd 37bb 3e53 ce37
00000100: c10a b5bd 8a8c 9b3d a697 4f3c ec17 d3be
00000110: 1a2a 33ba f377 e7bd f299 3ebb a6a7 0838
00000120: ce33 a0be 1df2 043e ded0 773e 3150 a73b
00000130: 2eee 39be efe6 0a3e 0bcb 163e ab0e 76bb
00000140: e75b 2f3e 3201 323e 544d 013e b54b 783e
00000150: 49b4 29bb a846 5db9 6860 1abe 48d2 4337
00000160: 2dc8 11b7 f10f aa3d ac42 bcbc 8792 9ebd
00000170: 2a65 613e 296d 4938 50fc 8abb 173c 13bd
00000180: 1d23 1fbb 665f 643e 342b 85bd 17d2 34b9
00000190: 269b 85bc 87de 2bbe 4a60 003d f3f2 8abc
000001a0: 9ae3 3ebd 80ce 833d 3235 ccbd a46f 4a3e
000001b0: fc5a a7be 902f 7e39 51b6 98b9 5685 b1bb
000001c0: 8170 92bd 4a45 d1be 2150 153c 54d6 0c38
000001d0: 5d57 2b3c 88dd 563d 474c 83bd d91c 4f3b
000001e0: f72a c03d e698 2e3e 9f71 1fbc e791 99be
000001f0: f7a5 c039 a02f e4bd f5ab 4b38 9b95 943d
00000200: ee27 f0b6 253f c7be ecd3 36be 82bf 313e
00000210: f5bf 8e37 6b89 e7be 679f 0d36 4967 6c3e
00000220: f56b 5c3d 1edc 4cbe 44be 0f37 68d0 0831
00000230: 4433 0b3e ff91 83be 8f30 16be ce52 2dbc
00000240: 8d19 8ebe fbd8 5f37 0844 37ba 4a21 9cbe
00000250: 5b51 103e 3e5d 03b8 7445 cfb6 e6df 0d3e
00000260: 65c9 623e 536e a537 5657 79be fc91 7c3d
00000270: fe09 54be 12fb b4b9 2011 323e 3dc7 0e3b
00000280: 06c7 0fbd 9dcb 3d3b 2fb0 db3d a4bd 413d
00000290: a804 b53d 4b76 23be d55e 83bb 53a1 9c37
000002a0: a9f4 a3b8 4072 60be 0716 bc2c fef1 44be
000002b0: 570e 143d 8d8e 81bd 3bba 123b 0aa5 b6be
000002c0: 3532 80bb b796 fb3d a958 ed3b bbc6 6fba
000002d0: 9d9e 17be 6508 d13d e3b7 36be da14 a6ba
000002e0: f457 093e 2a95 3dbc e5d1 f5bd 9f17 4b3e
000002f0: ca27 2836 aae1 203e 9997 5cbe 3d63 553e
00000300: 2ccb 0e3e cb4b 57bb 3282 463d b341 7dbe
00000310: 579b 4137 d3bc 293e 1188 8ebe 2ac4 1abe
00000320: 6e2d 6e39 7e8c 99b6 0236 c5bd b0d7 8abe
00000330: 8742 dc3c 6e24 80b9 d23f d33d a489 5a3d
00000340: 1a0b 433e 12ed 9cbc 5231 afb7 ed7f 2abe
00000350: d55f 47be 96e1 6d3e 186b 5ebe 181f 55be
00000360: 2443 9939 7c8f a83d bd5f e8bc a05b 64bd
00000370: a30d 8d3c 1179 a4be cf1b a43d 7d82 6c3b
00000380: c7b0 8c3e ef18 60bd e83e 5d3d c7f6 8539
00000390: 42dc c73d e172 87b8 11f5 e338 8ec7 dab8
000003a0: 39cd b5be 4db4 3b3e d36c 26bc 4788 4f3e
000003b0: c4f2 a43c d7de 0dbe 30b4 9b3a e002 883d
000003c0: 4633 36be 03e5 823d 96fd 9abb 3153 203e
000003d0: aa64 66be 92dc 8095 2421 8cbe ffc0 4f39
000003e0: 306a c63b d96f 173a bc13 043e e522 dcbb
000003f0: 743c dc3d 368e 17be fe6b 51be 4d58 893d
-0.025164437 0.029853141 0.030936576 -0.0003567705 -0.09919884 0.015530875 -0.008498425 0.0012681939
3.1120377e-05 0.001370405 -2.579693e-07 -0.013482553 0.124445595 -0.00026158986 -0.16934355 0.0005296298
0.15426765 -0.0995354 0.19485565 -2.3060442e-05 0.02342648 0.0072737513 -0.18532324 0.00061315333
0.10222567 -0.119686246 0.009012964 0.13627899 -2.648649e-08 4.2142343e-05 -0.011862338 -0.12686187
-0.00031050973 0.002636763 -2.9464312e-08 0.15527986 0.12926012 0.149271 0.12522362 -0.1292439
-0.093912914 -0.060494423 0.008913513 4.023672e-05 0.065907314 0.20279804 -0.4766635 0.16978537
-0.19006716 -0.07548702 -0.08737291 -6.4076346e-07 0.00015148577 -0.165032 0.15077327 0.00029024237
0.238405 0.13228074 -0.27068415 0.0895033 -0.21372963 -0.00034684254 -0.0028074866 2.4595876e-05
-0.08839942 0.07595165 0.012670433 -0.41229188 -0.0006834582 -0.113021754 -0.0029083458 3.258106e-05
-0.31289524 0.12982984 0.2420077 0.005105995 -0.18157265 0.13564657 0.14725892 -0.0037545364
0.17124902 0.17383268 0.12627155 0.2424763 -0.0025894812 -0.00021102524 -0.15075839 1.1671866e-05
-8.689281e-06 0.08303822 -0.02298101 -0.077427916 0.22011247 4.8023798e-05 -0.004241504 -0.035945978
-0.0024282404 0.22302017 -0.06502381 -0.00017244402 -0.016309332 -0.16784106 0.03134183 -0.01696155
-0.046603777 0.06435871 -0.09971084 0.1976915 -0.32686603 0.00024241046 -0.00029127536 -0.005417506
-0.07150365 -0.40873176 0.0091133425 3.357821e-05 0.010457841 0.052457362 -0.06411033 0.0031602888
0.09383195 0.17050514 -0.009731679 -0.29994127 0.00036744747 -0.11141896 4.855912e-05 0.072550975
-7.157206e-06 -0.38915363 -0.1785428 0.1735821 1.7017106e-05 -0.4522203 2.1103422e-06 0.23086275
0.053813893 -0.20005843 8.567764e-06 1.990907e-09 0.13593775 -0.25697324 -0.14666961 -0.010578824
-0.2775387 1.33423555e-05 -0.00069910334 -0.30494148 0.14093535 -3.1319672e-05 -6.177166e-06 0.13854942
0.22147138 1.9720906e-05 -0.24349722 0.06166266 -0.20706937 -0.00034519337 0.17389345 0.0021786236
-0.035101913 0.0028960474 0.10726964 0.047299996 0.08838779 -0.15963094 -0.0040091076 1.8671772e-05
-7.818017e-05 -0.21918583 5.345727e-12 -0.19232938 0.036146488 -0.063260175 0.0022388834 -0.3567279
-0.003912235 0.12284606 0.007243235 -0.00091467396 -0.148066 0.10206679 -0.17843585 -0.0012671009
0.13412458 -0.011571208 -0.12002925 0.1983323 2.505711e-06 0.15711084 -0.21542205 0.20838638
0.13944691 -0.0032851573 0.048464008 -0.24732094 1.1539864e-05 0.16575937 -0.27838185 -0.15113893
0.00022714373 -4.5761108e-06 -0.09629442 -0.27117682 0.026887191 -0.00024441205 0.10314907 0.05335392
0.19047204 -0.019156013 -2.0884592e-05 -0.16650362 -0.19470151 0.23230585 -0.2172054 -0.20812643
0.00029232458 0.082304925 -0.028365964 -0.055751443 0.017218417 -0.32123616 0.080131166 0.003608852
0.2747862 -0.05471128 0.05401507 0.000255516 0.09758808 -6.4586995e-05 0.00010869851 -0.0001043222
-0.35508135 0.18330498 -0.010157782 0.2026683 0.02013529 -0.13854538 0.0011879262 0.06641173
-0.17792997 0.06391337 -0.004729937 0.15656735 -0.22499338 -5.2046787e-26 -0.27369034 0.00019812955
0.006055139 0.00057768595 0.12898153 -0.006718027 0.10753718 -0.14800343 -0.20451352 0.06706295

hidden3.bias f4 [10]
00000000: 1871 233d 8d7a f73d d7ae 993c 3d58 a23d
00000010: a6e3 9bbd 82e6 89bb 9b76 05bd 51de 42bc
00000020: 738f e8bd 2069 043c
0.039902776 0.120839216 0.018760128 0.07926986 -0.0761178 -0.004208387 -0.032583814 -0.011893825
-0.11355486 0.008081704
