hw3/DANN_mnsv_F.pth (torch_old, 305334 bytes, 10 tensors)

conv1.weight f4 [64, 3, 3, 3]
0	0xbdf2c1c2	-0.118533626
1	0xbe37181d	-0.17880292
2	0xbe37699b	-0.17911379
3	0xbdbeb9cc	-0.09312782
4	0xbe09d44b	-0.1345989
5	0xbe39c10c	-0.18140048
6	0xbd98d269	-0.074620076
7	0xbe02770d	-0.12740727
8	0xbe2c4ae8	-0.1682545
9	0xbc5bf4de	-0.01342508
10	0xbd977656	-0.07395618
11	0x3cc1e75b	0.02366989
12	0xbd31ffe4	-0.043456927
13	0xbc71725a	-0.014736736
14	0x3d34540c	0.044025466
15	0xbc277499	-0.01022067
16	0x3d139209	0.03602794
17	0x3d868250	0.06567824
18	0x3e33ec72	0.17570665
19	0x3e10bab4	0.14133722
20	0x3d57ac32	0.052654453
21	0x3e12c654	0.14333469
22	0x3e0c5225	0.1370321
23	0x3d1154df	0.03548133
24	0x3ddc0c70	0.1074456
25	0x3e0f5b42	0.13999656
26	0x3ddca0d3	0.10772862
27	0x3de500a0	0.1118176
28	0x3e2cd9fe	0.16880032
29	0x3e834575	0.2563893
30	0xbe1c012e	-0.15234825
31	0x3d874e86	0.06606774
32	0x3e3a1813	0.18173246
33	0xbe113705	-0.14181145
34	0xbe4b8f7f	-0.19878958
35	0x3e81dfed	0.25366154
36	0x3c1b0dd8	0.00946375
37	0x3bb237f6	0.0054388
38	0x3b5ecfdb	0.0033998403
39	0xbd05fb1b	-0.032710176
40	0x3d68dd05	0.056851406
41	0x39dbc57d	0.00041918075
42	0xbdd6c6bc	-0.10487124
43	0xbd8df287	-0.06931024
44	0x3dcf6be9	0.10128004
45	0x3e1561a9	0.14588036
46	0x3dd4b9d0	0.103870034
47	0x3dc045f2	0.09388341
48	0x3c71b7ac	0.014753263
49	0x3d3f67e2	0.04672993
50	0x3d9dd1c3	0.077060245
51	0xbd45fe4d	-0.048338223
52	0xbdc109cc	-0.09425697
53	0x3dda5225	0.10660199
54	0xbe14fa6f	-0.14548658
55	0xbc40ed0a	-0.0117752645
56	0x3c5e9bb6	0.013586929
57	0xbddec00d	-0.108764745
58	0x3d3caf1c	0.046065435
59	0xbcb49229	-0.02204235
60	0xbe12c928	-0.14334548
61	0xbdb3b186	-0.08774094
62	0xbe07de11	-0.13268305
63	0x3e937d6a	0.2880662
64	0x3e7ab1d0	0.24481893
65	0x3e996e1f	0.29966828
66	0x3e86ff65	0.26366726
67	0x3e801e73	0.2502323
68	0x3e288a7f	0.16459082
69	0x3e1892d1	0.14899756
70	0x3e01f57e	0.12691304
71	0x3c86c5b8	0.016451702
72	0xbe020f14	-0.12701064
73	0xbe6626f7	-0.22475801
74	0xbe89ef95	-0.269406
75	0xbd90b3e5	-0.07065562
76	0xbdd35644	-0.10319188
77	0xbde04da8	-0.10952312
78	0xbcc56c0d	-0.024099374
79	0xbc6cec73	-0.014460671
80	0x3d8434cc	0.06455383
81	0xbe367c24	-0.17820793
82	0xbe026310	-0.12733102
83	0xbd55995a	-0.0521482
84	0xbe18b1c3	-0.1491156
85	0xbe061741	-0.13094808
86	0xbe00062a	-0.12502351
87	0x3db53fa6	0.088500306
88	0xbd420232	-0.047365375
89	0xbe166869	-0.14688267
90	0x3d337407	0.043811824
91	0x3c47c17a	0.0121921245
92	0x3cb6a309	0.022294538
93	0x3d6163c8	0.0550268
94	0x3d1c5a01	0.038171772
95	0x3c834237	0.016022785
96	0x3d3303cf	0.043704804
97	0x3bb1279c	0.005406333
98	0x3c88a4c9	0.016680138
99	0x3ddddb51	0.10832847
100	0x3d5562c6	0.05209615
101	0x3d047afb	0.032343846
102	0x3d637963	0.055535685
103	0x3d86af28	0.06576377
104	0x3db9cd4b	0.0907236
105	0xbd6144b8	-0.054997176
106	0x3c9a3350	0.018823296
107	0x3dd2c3d9	0.10291261
108	0x3de0ec15	0.10982529
109	0xbb75bf79	-0.003749816
110	0xbd3a194c	-0.04543428
111	0x3d0a1dee	0.03371995
112	0x3dea2873	0.11433496
113	0x3d0c5a30	0.034265697
114	0xbca4b017	-0.020103497
115	0xbe86f1b9	-0.26356295
116	0xbeb1164c	-0.34587324
117	0xbe9618a1	-0.29315665
118	0xbe88f0f5	-0.26746336
119	0xbe946ebb	-0.2899073
120	0xbc5e11d2	-0.013554053
121	0xbe00972f	-0.12557672
122	0x3baf929d	0.005358054
123	0x3db0a184	0.08624557
124	0x3dab1aa7	0.08354693
125	0x3e6ea68e	0.23305723
126	0x3e256033	0.16149978
127	0x3e15a834	0.14614946
128	0x3e45007c	0.19238466
129	0x3c800d12	0.015631232
130	0x3e22432c	0.15845937
131	0x3e64453c	0.22292036
132	0xbb16e35f	-0.0023023707
133	0xbe00d252	-0.12580231
134	0xbde88275	-0.11353008
135	0xbe1f6278	-0.15564907
136	0xbe47cfe7	-0.19512902
137	0xba560ff2	-0.0008165828
138	0x3e2f81ca	0.17139354
139	0x3e3dea74	0.18546468
140	0x3dd512b0	0.10403955
141	0xbbb7223c	-0.005588798
142	0xbd86c216	-0.06579988
143	0xbd6cf792	-0.05785329
144	0xbdc0d865	-0.09416274
145	0xbdfb85eb	-0.12281402
146	0x3d926682	0.07148458
147	0x3d2d3b82	0.04229308
148	0x3e4531e5	0.19257315
149	0xbd5d9227	-0.05409446
150	0x3d297392	0.041369982
151	0xbdc59e7d	-0.0964937
152	0xbe663f62	-0.22485116
153	0xbed842c5	-0.4223844
154	0xbef4505c	-0.4771756
155	0xbd5cfb76	-0.05395075
156	0x3dc55720	0.096357584
157	0x3e90152f	0.28141162
158	0x3d201e19	0.039091203
159	0x3e7ff8f0	0.24997306
160	0x3e10cc25	0.14140375
161	0x3e6ab2bf	0.22919749
162	0x3e5b59d4	0.21420985
163	0x3d2fa692	0.042883463
164	0xbd2da693	-0.042395186
165	0x3e2d4eee	0.1692464
166	0xbd1fb583	-0.038991462
167	0xbe192126	-0.14954051
168	0x3e2ea4c6	0.17055044
169	0xbe27f464	-0.16401821
170	0xbe4a3b08	-0.19749081
171	0x3e807369	0.2508805
172	0xbcbb424e	-0.022858765
173	0xbdd078a0	-0.101792574
174	0x3e5f0470	0.21779037
175	0xbd58846f	-0.052860674
176	0xbe950202	-0.29103094
177	0x3da310c5	0.07962183
178	0xbe199843	-0.1499949
179	0xbe4ed153	-0.20197038
180	0xbed1785a	-0.40912133
181	0xbd8c3e93	-0.068478726
182	0x3e37f09d	0.1796288
183	0xbed6b562	-0.4193526
184	0x3e14a6a7	0.14516698
185	0x3ec33bc6	0.3813154
186	0xbe501f77	-0.20324503
187	0x3e8164f8	0.25272346
188	0x3ecd83e8	0.401397
189	0x3de5abbd	0.11214397
190	0x3bc34ef5	0.00596034
191	0xbdaa23c3	-0.08307602
192	0xbcf5e370	-0.030015677
193	0xbd782dbf	-0.060590502
194	0xbd18fb6d	-0.037349153
195	0xbdc4568b	-0.09586819
196	0xbd695af5	-0.05697151
197	0x3c922eb4	0.017844535
198	0x3e2f1a96	0.17099985
199	0x3da5aab4	0.080892
200	0x3cb5c12b	0.022186836
201	0x3de1f779	0.1103353
202	0x3d761986	0.060082935
203	0x3c82ad9d	0.015951926
204	0x3d96f279	0.07370467
205	0x3d38790a	0.045037307
206	0xb992cdaf	-0.00028000536
207	0xbe29f76c	-0.1659829
208	0xbcc9577c	-0.024577849
209	0x3dc28523	0.0949805
210	0xbd76655b	-0.060155254
211	0x3d974e2b	0.07387956
212	0x3dec6fce	0.115447626
213	0x3d01d8b4	0.031700805
214	0x3d80084e	0.06251584
215	0x3d80cfee	0.062896594
216	0xbd87cb32	-0.06630553
217	0xbe668bbe	-0.22514245
218	0xbdb915f0	-0.09037387
219	0x3e5c3f18	0.21508443
220	0xbe3dd9b9	-0.18540086
221	0xbe592dbe	-0.21208856
222	0x3ef65ebc	0.48119152
223	0x3cc2f12f	0.023796646
224	0xbe5635f7	-0.20919023
225	0x3c62c87b	0.013841744
226	0x3d9a4af4	0.075338274
227	0x3e344996	0.17606196
228	0xbdf22719	-0.118238635
229	0xbcde2ad8	-0.027120039
230	0x3e12d8b5	0.1434048
231	0xbe08df42	-0.13366416
232	0xbc80bba7	-0.01571448
233	0x3dfdf9d8	0.124011695
234	0x3cd18b56	0.025579136
235	0x3e28bd68	0.16478503
236	0xbd515f40	-0.051116228
237	0xbcb3f8ae	-0.021969166
238	0x3ddc6f63	0.10763433
239	0x3da25167	0.079256825
240	0xbebfaf60	-0.37438488
241	0x3dc20b13	0.094747685
242	0x3dfd2dc9	0.123622485
243	0x3d4330a2	0.0476538
244	0xbe5f6051	-0.21814086
245	0x3c6d6845	0.014490192
246	0x3e90dc74	0.28293192
247	0x3da7ba95	0.081898846
248	0xb8844c63	-6.3084786e-05
249	0x3d3f9328	0.0467712
250	0xbe439ad6	-0.19102034
251	0xbd16289b	-0.03665982
252	0x3c232667	0.009957886
253	0xbe0b6079	-0.1361102
254	0xbcfcfe1f	-0.030882893
255	0x3e86ce94	0.26329482

conv1.bias f4 [64]
0	0xb5dad872	-1.630526e-06
1	0xb81927bd	-3.651505e-05
2	0xb804fbd3	-3.1705782e-05
3	0x34faad32	4.6692145e-07
4	0x3842a0b4	4.640287e-05
5	0x38bb527a	8.932217e-05
6	0x36ba1d67	5.546655e-06
7	0x3665cb2e	3.4241925e-06
8	0x391d6e05	0.00015013672
9	0x37e4ffcc	2.7298833e-05
10	0x38913c23	6.92534e-05
11	0xb88ea192	-6.8011825e-05
12	0x390525ed	0.00012697997
13	0x387225cc	5.7732497e-05
14	0x39a3b7e2	0.00031226786
15	0xb719f97c	-9.177598e-06
16	0xb7c26c33	-2.3176986e-05
17	0xb7727b85	-1.4453083e-05
18	0xb489a401	-2.5637567e-07
19	0x39511c96	0.00019942442
20	0xb7bfb49e	-2.285308e-05
21	0x39854d0b	0.00025425138
22	0xb8049e53	-3.1618703e-05
23	0xb897c436	-7.236788e-05
24	0x37887aff	1.6269738e-05
25	0x38b581f8	8.654961e-05
26	0x3721d76b	9.646504e-06
27	0xb7e05af7	-2.674524e-05
28	0x3905ab73	0.00012747738
29	0xb7ae8642	-2.0804935e-05
30	0xb90fd326	-0.00013716202
31	0xb7fa81a4	-2.9862691e-05
32	0x388a427e	6.592738e-05
33	0xb6f50b97	-7.302918e-06
34	0x38ecdd80	0.000112946145
35	0xb894b1d3	-7.090312e-05
36	0x37a958f9	2.0187801e-05
37	0x3889eac6	6.576399e-05
38	0xb80b5c08	-3.3225893e-05
39	0xb7a9e5ac	-2.025332e-05
40	0x38413af4	4.606969e-05
41	0xb756c56a	-1.2801358e-05
42	0x37eb10f1	2.8022072e-05
43	0x3882b8b7	6.233289e-05
44	0x375dd4fb	1.3222215e-05
45	0x396d7247	0.00022644653
46	0x3941e6d8	0.0001849191
47	0x37ff5db3	3.0442001e-05
48	0x38134cad	3.511894e-05
49	0xb7c3c2d5	-2.3336537e-05
50	0x37a62101	1.980411e-05
51	0xb89a274a	-7.3506104e-05
52	0x37c71ddc	2.3736553e-05
53	0xb925541d	-0.00015766961
54	0xb85e6d5a	-5.3030766e-05
55	0x37f27cee	2.8906823e-05
56	0x371ceab8	9.352974e-06
57	0xb83a4a5f	-4.441512e-05
58	0xb9227d1a	-0.00015496128
59	0xb57ddef5	-9.457429e-07
60	0xb9827ce1	-0.00024888574
61	0xb8418b90	-4.6144763e-05
62	0xb8f3af63	-0.00011619811
63	0x38b67f68	8.7021675e-05

conv2.weight f4 [64, 64, 3, 3]
0	0xbc1b199c	-0.009466555
1	0xbd0cddb6	-0.034391128
2	0xbc18978d	-0.009313476
3	0x3d741ce2	0.059597857
4	0x3c688327	0.014191425
5	0xbd08f0b6	-0.033432685
6	0x3dd8fc91	0.10595048
7	0x3d0e243d	0.03470253
8	0x3c50e0eb	0.012748937
9	0xbbe61aa8	-0.0070222206
10	0xbddc0135	-0.10742418
11	0xbd5c00d1	-0.053711716
12	0x3d486b96	0.048930727
13	0xbd0b8427	-0.034061577
14	0xbc83a8d0	-0.016071707
15	0x3d89fad9	0.067372985
16	0x3d840f2f	0.064482085
17	0x3c8ea761	0.017413797
18	0x3d4d8ad1	0.050181214
19	0x3ce5c53f	0.028048156
20	0xbd09d980	-0.03365469
21	0x3d8d77b0	0.06907594
22	0xbde345cf	-0.11097299
23	0xbc358363	-0.011078688
24	0x3aef9809	0.0018279563
25	0x3c46a169	0.012123444
26	0x3e32235a	0.17396298
27	0xbc260758	-0.010133587
28	0xbca81184	-0.020516165
29	0x3bc14726	0.005898374
30	0x3b7ca74b	0.0038551863
31	0xbc479595	-0.012181659
32	0x3b412b5c	0.0029475307
33	0x3cfaf6ef	0.030635325
34	0x3d01e984	0.03171684
35	0x3d624ba3	0.055247914
36	0xbcbd92fc	-0.023141377
37	0xbd5f41a9	-0.054505978
38	0xbdd0b38a	-0.10190494
39	0x3d6b8dbb	0.05750821
40	0x3ca29ee4	0.019851156
41	0x3dc8fad1	0.098134644
42	0x3dc863da	0.0978467
43	0x3de4728e	0.11154662
44	0xbc8cfd4f	-0.01721063
45	0x3cef7b41	0.029233577
46	0xbdc14bba	-0.09438272
47	0xbd938e13	-0.07204833
48	0x3e160f1e	0.14654204
49	0xbd63b719	-0.055594537
50	0xbc8b44aa	-0.017000515
51	0x3e66ae0d	0.22527333
52	0x3dd7b241	0.10532046
53	0x3e567aaf	0.20945238
54	0xbe0bb0bc	-0.13641638
55	0x3d5f1804	0.054466262
56	0xbd8453ed	-0.0646132
57	0xbcddd272	-0.027077887
58	0xbc8dfa6f	-0.01733133
59	0xbe825410	-0.2545476
60	0xbdf3d384	-0.11905578
61	0xbe1336c8	-0.14376366
62	0xbd0d113e	-0.03444027
63	0xbce2a4fe	-0.027666565
64	0xbd1edc25	-0.038784165
65	0x3cc874c8	0.024469748
66	0xbd3d696f	-0.046243127
67	0xbb079e21	-0.0020693617
68	0x3d0cafe2	0.034347422
69	0xbd065ddf	-0.032804366
70	0xbcf4522f	-0.029824344
71	0xbc79912e	-0.015232367
72	0xbd4bd0bb	-0.049759608
73	0x3bbbce76	0.005731399
74	0xbd56f317	-0.052477922
75	0xbd195ae1	-0.037440185
76	0xbdd32d90	-0.10311425
77	0xbcf9803d	-0.030456657
78	0xbd0b90d5	-0.03407367
79	0xbcba3c20	-0.022733748
80	0x3a4e6bd6	0.0007874345
81	0x3cfec87b	0.031101456
82	0x3c1af203	0.009457114
83	0x3ca7a08b	0.020462295
84	0x3cf49baf	0.029859392
85	0xbd9e65c0	-0.07734251
86	0x3c536ad9	0.012903892
87	0xbda455d3	-0.08024182
88	0xbd329c6c	-0.043606207
89	0xbd81fb1a	-0.06346722
90	0xbd9fa755	-0.07795588
91	0xbbd65f36	-0.0065421117
92	0x3d1c4801	0.038154606
93	0x3d0c9d44	0.034329668
94	0x3d105cc5	0.035244722
95	0x3d997101	0.07492257
96	0x3cbc1db9	0.022963392
97	0x3d9abd11	0.07555593
98	0xbd90e345	-0.07074598
99	0xbd9c2853	-0.07624879
100	0xbd8463df	-0.064643614
101	0xbdb0750b	-0.08616074
102	0xbdadce03	-0.08486559
103	0xbcd7debf	-0.02635133
104	0x3de496b9	0.111615606
105	0xbb326149	-0.002721863
106	0x3bfa3f01	0.007636905
107	0xbbd4627a	-0.006481466
108	0xbcef0951	-0.029179247
109	0xbc64c418	-0.013962768
110	0xbc427461	-0.011868567
111	0x3d8de0a2	0.06927611
112	0xbd1f87c9	-0.038947854
113	0x3e130854	0.14358646
114	0xbd1ac868	-0.03778878
115	0x3d84511c	0.06460783
116	0x3d4de50b	0.05026726
117	0x3bd37596	0.0064532263
118	0xbd970f2a	-0.07375939
119	0xbcdf8825	-0.027286598
120	0xbd2116d2	-0.039328404
121	0xbd327baf	-0.043574985
122	0x3d0e7668	0.03478089
123	0x3ba38eff	0.0049914117
124	0xbd24de60	-0.040251136
125	0x3d0994e7	0.03358927
126	0xbdce7970	-0.10081756
127	0xbde3c9a8	-0.11122447
128	0xbe07fc93	-0.13279943
129	0xbda45872	-0.08024682
130	0xbd78fcfd	-0.060788143
131	0x3df57a8b	0.11986264
132	0xbd5ab0d1	-0.05339128
133	0x3d49b120	0.049241185
134	0xbdbd65c0	-0.09247923
135	0x3caad73e	0.020854589
136	0x3d06a1ad	0.03286903
137	0x3d735467	0.059406664
138	0xbc06aa7a	-0.008219356
139	0x3c9cb0df	0.019127307
140	0x3d9553cf	0.07291376
141	0x3d95858d	0.073008634
142	0x3d9980b5	0.07495252
143	0x3d57a5e7	0.05264845
144	0x3c6e7889	0.014555105
145	0xbd858daf	-0.065211646
146	0xbe3ace42	-0.18242744
147	0xbdaed30d	-0.085363485
148	0xbe01f3fa	-0.12690726
149	0xbd0c1a1c	-0.034204587
150	0xbe2ff082	-0.1718159
151	0xbdc9a0e9	-0.09845144
152	0xbde2d238	-0.11075252
153	0x3b5253dd	0.0032093443
154	0xbc42f3af	-0.011898919
155	0xbc90f491	-0.017694743
156	0xbc8d67e7	-0.017261459
157	0xbd178df8	-0.037000626
158	0xbca10c0e	-0.019659068
159	0xbc199b15	-0.009375353
160	0xbd03668f	-0.03208023
161	0xbcc2e289	-0.023789661
162	0xbd8bb695	-0.06821934
163	0x3c47dd60	0.012198776
164	0xbd4e2f81	-0.050338272
165	0x3d744223	0.059633385
166	0x3d549c73	0.051907014
167	0xbe2d4798	-0.16921842
168	0xbd812c88	-0.06307322
169	0xbcd4369a	-0.025904942
170	0x3de602e2	0.112310186
171	0xbd3f9cf0	-0.046780527
172	0x3d95b2a5	0.07309464
173	0x3dabb780	0.08384609
174	0x3db0537a	0.08609672
175	0x3def01cb	0.11670264
176	0x3d10d026	0.035354756
177	0x3d038ecd	0.032118607
178	0xbc1472e6	-0.009060597
179	0x3d8a988f	0.067673795
180	0x3bf9e1dc	0.0076258015
181	0xba81521a	-0.0009866387
182	0xbc5599d9	-0.013037168
183	0xbb958e87	-0.0045641097
184	0xbcc0f8a2	-0.023556057
185	0xba0d2cfc	-0.00053854263
186	0xbbd8a0c6	-0.0066109626
187	0xbc3a07eb	-0.011354427
188	0xbb950254	-0.0045473967
189	0xbd121c56	-0.035671555
190	0xbd6fe864	-0.058571234
191	0xbcfebfc1	-0.031097295
192	0x3dab002e	0.08349644
193	0x3b12b2f4	0.0022384496
194	0x3d2a871b	0.041632753
195	0xbcafc683	-0.021456962
196	0xbcb34e0f	-0.021887807
197	0x3d0c97c5	0.034324426
198	0xbc26b0e7	-0.010174013
199	0xbcef3b85	-0.029203186
200	0xbbaf8e76	-0.005357559
201	0x3cbafcc9	0.022825615
202	0x3d34cf32	0.04414291
203	0xbcabd26c	-0.02097436
204	0x3ce06e43	0.027396327
205	0xbcabdc87	-0.02097918
206	0xbd872d5d	-0.06600449
207	0xbd38644c	-0.045017526
208	0x3d5e8943	0.05433012
209	0xbd6758ea	-0.05648128
210	0x3d812463	0.06305768
211	0x3ca18166	0.019715022
212	0xbda3137a	-0.07962699
213	0xbd395ad4	-0.045252636
214	0xbd4429e6	-0.04789152
215	0xbc84d5cf	-0.016215233
216	0xbdb7133c	-0.089392155
217	0xbd21e159	-0.03952155
218	0x3deee208	0.11664206
219	0xbe19a834	-0.1500557
220	0x3d3a4f25	0.045485634
221	0x3d1caef9	0.038252804
222	0xbcba3d0f	-0.022734193
223	0x3d38e77e	0.045142643
224	0x3d262d77	0.040570702
225	0x3d7ede3c	0.062223658
226	0x3da30d97	0.079615764
227	0x3c0b9aad	0.008520764
228	0x3dd257e0	0.10270667
229	0x3d03dbcc	0.032192037
230	0x3d916a0e	0.071003065
231	0xbe043834	-0.12912065
232	0xbd56e5ac	-0.052465126
233	0x3b578766	0.00328871
234	0x3d664ca8	0.05622545
235	0xbc829d70	-0.015944213
236	0xbd3e0e38	-0.04640028
237	0x3c77d947	0.015127487
238	0xbc0d9f38	-0.008643918
239	0x3b9eacd0	0.004842378
240	0x3d374d48	0.044751436
241	0x3d0883f6	0.033328973
242	0x3da4504d	0.08023129
243	0x3cca1ebb	0.024672857
244	0xbd3a565d	-0.04549252
245	0xbc8c2730	-0.01710853
246	0x3bd93616	0.006628762
247	0xbc81b20d	-0.015831972
248	0x3bcb6d28	0.006208081
249	0xbc996992	-0.018727098
250	0xbc853825	-0.016262123
251	0x3d1055fe	0.03523826
252	0x3cd70dc0	0.026251674
253	0xbd469370	-0.04848045
254	0xbdc8030e	-0.09766208
255	0xbd2c02af	-0.041994747

conv2.bias f4 [64]
0	0xbd832fc8	-0.06405598
1	0x3dd7f8af	0.105454795
2	0x3c54244a	0.012948105
3	0x3da36323	0.07977893
4	0xbd70e71d	-0.058814157
5	0x3e067e79	0.13134183
6	0xbd45a70b	-0.048255008
7	0x3d151b95	0.036403257
8	0x3cf3a5cb	0.029742142
9	0x3e33014f	0.17480968
10	0x3dbc10c7	0.091828875
11	0x3bda076b	0.0066537163
12	0xbb10918a	-0.0022059404
13	0x3d4a9813	0.049461436
14	0xbd38023c	-0.044924006
15	0x3bb95f9f	0.005657151
16	0x3dd000c5	0.10156397
17	0x3ddefbb0	0.10887849
18	0xbdaa630d	-0.08319674
19	0xbced8fcb	-0.02899923
20	0x3d76f1ec	0.06028931
21	0x3dfb494a	0.12269838
22	0x3da2a0fc	0.079408616
23	0x3ddcdb64	0.10784033
24	0xbc1b5a57	-0.009481988
25	0xbdace05f	-0.08441233
26	0xbd5a9269	-0.053362284
27	0x3e1351fe	0.14386746
28	0xbdaabc4a	-0.083366945
29	0x3c93670e	0.017993476
30	0x3ebff990	0.3749509
31	0xbda7201e	-0.08160423
32	0x3dd8e4ae	0.10590492
33	0x3df6cfce	0.12051354
34	0x3d88b4db	0.066751204
35	0xbd9bae4a	-0.076016024
36	0xbd0501c2	-0.03247238
37	0x3c779116	0.015110275
38	0x3e04f4ce	0.1298401
39	0x3e9c77d9	0.30560187
40	0x3d4f8b66	0.05067005
41	0x3dffe5eb	0.12495025
42	0x3e75519c	0.23956913
43	0x3dc10afc	0.09425923
44	0xbc21cd02	-0.009875538
45	0x3d710534	0.058842853
46	0x3e010da9	0.12602867
47	0xbce11226	-0.027474474
48	0x3caf816f	0.021424023
49	0x3d461119	0.04835615
50	0x3e1392ca	0.14411464
51	0x3dd9532e	0.106115684
52	0x3e580ce8	0.21098673
53	0xbb8f45bc	-0.0043723267
54	0x3e7d1afc	0.24717325
55	0x3c7a6578	0.015282981
56	0x3e1d5df5	0.15367873
57	0x3d5d178f	0.053977545
58	0x3cf354f8	0.029703602
59	0x3e05d4a5	0.13069399
60	0xbd4229da	-0.047403194
61	0x3e48f254	0.19623691
62	0x3da478fc	0.080308884
63	0xbe09d60e	-0.13460562

conv3.weight f4 [64, 64, 3, 3]
0	0x3c8deb18	0.017324015
1	0x3d8e7958	0.06956738
2	0x3cec89b3	0.028874254
3	0x3d5cb6e4	0.053885356
4	0xbd207844	-0.039177194
5	0x3c70787e	0.014677165
6	0x3cf4857a	0.029848803
7	0xbd0a05a4	-0.033696786
8	0x3dbd1c44	0.09233907
9	0x3dc133be	0.09433697
10	0x3a0a9c30	0.0005287556
11	0x3bdc3bf6	0.006721015
12	0x3d2dea7f	0.04245996
13	0xbdc8f25b	-0.09811851
14	0xbc613f1e	-0.0137479585
15	0xbd7110d2	-0.05885393
16	0xbb3ba9fc	-0.0028635254
17	0x3d884799	0.06654281
18	0x3cb9ee90	0.022696763
19	0xbdb9eb7d	-0.09078119
20	0xbda44216	-0.080204174
21	0x3dc2d4a5	0.09513215
22	0x3d9f1ba0	0.07768941
23	0xbc8de50d	-0.017321134
24	0xbe104f5b	-0.14092772
25	0x3d4392ed	0.04774754
26	0x3dc37d5a	0.09545393
27	0xbdc9d218	-0.09854525
28	0xbd98c2c7	-0.07459026
29	0xbc177128	-0.009243287
30	0x3de09abb	0.109670125
31	0x3c35e3fb	0.011101718
32	0xbd09d396	-0.03364905
33	0xbe194558	-0.14967859
34	0x3c10fe4e	0.008849693
35	0xbd03b82b	-0.032158058
36	0x3d1917e5	0.037376303
37	0x3db0f6ac	0.08640799
38	0x3dbd5da2	0.09246375
39	0x3d861035	0.0654606
40	0xbd82827a	-0.06372543
41	0xbd97b093	-0.07406726
42	0x3cfc9f8b	0.030837795
43	0x3d455921	0.048180703
44	0x3de75ba7	0.11296778
45	0xbc095178	-0.00838124
46	0xbcf3238e	-0.02968004
47	0xbd863366	-0.06552772
48	0x3defbc52	0.11705841
49	0x3dd07fef	0.101806514
50	0xbd445b3a	-0.047938563
51	0x3cd4f111	0.025993856
52	0x3aa7fea4	0.0012816978
53	0x3dcb9e0a	0.09942253
54	0x3e06f62f	0.13179849
55	0x3dbdb60f	0.092632405
56	0xba76a58e	-0.0009408825
57	0x3a6b4fd8	0.0008976436
58	0x3da090dd	0.078401305
59	0x3c36a43b	0.011147554
60	0xbceb5767	-0.0287282
61	0x3e2ea034	0.170533
62	0xbd3ac637	-0.04559919
63	0xbdcfd161	-0.10147358
64	0xbad3aaca	-0.0016148922
65	0x3d051a37	0.032495704
66	0xbd2710e0	-0.040787578
67	0xbdb32158	-0.08746594
68	0xbd9843d1	-0.0743481
69	0xbbce4c38	-0.006295707
70	0x3e3a3b5e	0.1818671
71	0x3d6b703e	0.05748009
72	0xbd831255	-0.06399981
73	0x3dbb66e9	0.09150488
74	0x3dbb99f6	0.09160225
75	0x3cab54d3	0.02091447
76	0xbcc3bc5d	-0.02389353
77	0xbd78627f	-0.06064081
78	0xbda7d93c	-0.08195731
79	0x3d786f9f	0.060653325
80	0xbe005459	-0.12532176
81	0xbdb7dbdb	-0.08977481
82	0xbc445578	-0.011983268
83	0xbbe8a0be	-0.00709924
84	0x3d417d9c	0.04723893
85	0xbd13ab51	-0.036052052
86	0xbd72e739	-0.059302542
87	0x3d9abbfc	0.075553864
88	0xbdbf2202	-0.09332658
89	0xbd8605ca	-0.06544073
90	0xbe722327	-0.23646222
91	0x3da5746e	0.08078848
92	0x3d46c38b	0.048526328
93	0x3dbeddf2	0.093196765
94	0x3caf6985	0.02141262
95	0xbc59b5c5	-0.013287966
96	0xbca2a6ea	-0.019854981
97	0xbd82fa7f	-0.063954346
98	0xbd88aa61	-0.06673122
99	0x3d8b0481	0.067879684
100	0xbc9a8606	-0.018862735
101	0xbd0bcb53	-0.034129452
102	0x3e04df0e	0.12975714
103	0x3d1c3fe4	0.03814687
104	0xbe5d25bc	-0.21596426
105	0x3b0d27a2	0.0021538516
106	0x3da3c403	0.07996371
107	0xbd942bf1	-0.07234944
108	0x3e18c4a0	0.14918756
109	0x3c6a7801	0.014310838
110	0xbcef0597	-0.02917747
111	0x3d60b976	0.05486437
112	0xbd93d70a	-0.0721875
113	0xbdf50635	-0.119640745
114	0xbcec2893	-0.028827941
115	0xbc3d4ccc	-0.011553954
116	0x3e0cc27a	0.13746062
117	0x3ce31064	0.027717777
118	0x3bf0e8dd	0.007351978
119	0x3d9bf8b8	0.07615799
120	0x3c934be9	0.017980533
121	0x3dad310a	0.08456619
122	0x3d02f3f2	0.031970926
123	0x3d617718	0.055045217
124	0xbde23f50	-0.11047232
125	0xbd31a6a1	-0.0433718
126	0xbe6784af	-0.22609209
127	0xbd9a1450	-0.075234056
128	0xbbe96724	-0.007122891
129	0x3dbcd56a	0.09220393
130	0x3d86d071	0.06582726
131	0x3903a563	0.00012554745
132	0xbe0c125b	-0.13678877
133	0x3c75f96d	0.015013081
134	0xbdc93661	-0.09824825
135	0x3d4861d4	0.04892142
136	0x3d110a6d	0.035410333
137	0x3d8a5d99	0.067561336
138	0x3d0b23aa	0.03396956
139	0x3c612b9f	0.01374331
140	0xbbef2591	-0.0072981794
141	0x3d61f47c	0.0551648
142	0xbdb06077	-0.08612149
143	0xbcd89bb6	-0.026441436
144	0xbdaf9b81	-0.08574582
145	0x3d05d686	0.03267529
146	0xbd793119	-0.06083784
147	0xbd408d34	-0.04700966
148	0x3aa09126	0.0012250289
149	0xbd86e661	-0.0658691
150	0x3d28b2b7	0.04118606
151	0x3d9081a6	0.070559785
152	0x3d974a1c	0.07387182
153	0xbd43b183	-0.04777671
154	0xbce005b9	-0.027346479
155	0x3da22421	0.07917047
156	0x3e24d43d	0.16096587
157	0x3db8e8e8	0.09028798
158	0x3e39ae98	0.18133008
159	0x3d822042	0.06353809
160	0x3d5deab8	0.054178923
161	0x3c2b914c	0.010471653
162	0xbd41be81	-0.04730082
163	0xbbc0b32d	-0.0058807344
164	0x3cfe1bbe	0.031019088
165	0x3c259faf	0.010108872
166	0xbdaf1ee4	-0.08550814
167	0xbd9a5882	-0.07536413
168	0x3d6ede44	0.058317438
169	0x3dac0b0b	0.08400544
170	0x3d32966b	0.04360048
171	0xbc9f257d	-0.019427055
172	0xbd2601ef	-0.040529188
173	0x3de913af	0.113807075
174	0xbd95c2ce	-0.07312547
175	0x3cacc3ae	0.021089401
176	0x3d5f0e9b	0.05445729
177	0x3d868325	0.065679826
178	0xbd2c4014	-0.042053297
179	0x3ccf5ab0	0.025311798
180	0xbc25a387	-0.010109789
181	0x3c29410a	0.010330448
182	0xbd365e44	-0.044523492
183	0x3d5c6849	0.05381039
184	0xbe1e1a27	-0.15439664
185	0xbe0ae6db	-0.13564627
186	0xbc2b6a8f	-0.010462417
187	0x3d12cbb3	0.035838794
188	0xbd5f4f5f	-0.054519054
189	0x3e5c9f31	0.21545102
190	0xbdc3869d	-0.0954716
191	0xbc02e89e	-0.007990031
192	0x3d9ffc96	0.07811849
193	0xbd24d345	-0.040240545
194	0x3dbfb56c	0.09360775
195	0x3d9636cf	0.07334673
196	0xbd240eef	-0.040053304
197	0xbdb366e2	-0.08759858
198	0xbe244b4d	-0.1604435
199	0xbc817df2	-0.015807126
200	0x3d62f05f	0.055405017
201	0xbdbbc637	-0.09168666
202	0x3ac87930	0.0015294906
203	0xbde5791f	-0.11204743
204	0x3c7fcce0	0.015612811
205	0x3de9b621	0.114116915
206	0xbd40c4d1	-0.0470627
207	0xbd7dada8	-0.06193319
208	0x3d17aebd	0.037031878
209	0xbd6cafed	-0.057784963
210	0x3d89dc1f	0.06731438
211	0xbc1d3f69	-0.009597638
212	0xba23801e	-0.00062370475
213	0xbc9047e5	-0.017612407
214	0xbc774635	-0.015092422
215	0x3daca7e7	0.08430462
216	0xbdc8c279	-0.09802718
217	0xbd0e40f4	-0.034729913
218	0x3d8e95d1	0.06962169
219	0xbd42c31c	-0.047549352
220	0x3d1f15c6	0.038839124
221	0x3e1cdf5a	0.15319577
222	0x3c8491ab	0.016182741
223	0xbc0e405b	-0.008682336
224	0xbd1a01f3	-0.037599515
225	0xbe13b9ba	-0.14426318
226	0xbb114254	-0.0022164779
227	0x3d522510	0.051304877
228	0x3c44019c	0.011963274
229	0xbd94b8c0	-0.07261801
230	0x3d4b063b	0.04956649
231	0x3dd18976	0.10231297
232	0xbd1dd780	-0.038535595
233	0x39c4d413	0.0003754204
234	0x3db1f956	0.08690135
235	0x3c643dfd	0.013930795
236	0x3d8ed715	0.069746174
237	0xbdbb20ad	-0.09137092
238	0x3d38a863	0.04508246
239	0x3cbf7e08	0.023375526
240	0x3de77620	0.113018274
241	0xbd09f756	-0.033683144
242	0x3df0a39d	0.11749957
243	0x3d18cf7a	0.03730724
244	0xbd44e53a	-0.04807017
245	0x3d5c0d36	0.053723536
246	0xbd1c23ba	-0.03812001
247	0xbd63a2e1	-0.055575255
248	0xbdbd7de2	-0.09252526
249	0x3d778454	0.060428932
250	0x3c69eb68	0.014277317
251	0xbddee82a	-0.108841255
252	0xbe1c8bb9	-0.15287675
253	0x3d975a0e	0.073902234
254	0x3a357bae	0.0006923032
255	0xbd71b01b	-0.059005838

conv3.bias f4 [64]
0	0x3d8a519d	0.06753848
1	0xbb9e5550	-0.0048319474
2	0x3d073734	0.03301163
3	0x3e1b7e07	0.15184794
4	0x3cbd6ce6	0.023123216
5	0xbcae4db2	-0.021277282
6	0x3c9fe418	0.019517943
7	0x3e0791e8	0.13239253
8	0x3e11e56a	0.14247671
9	0x3e461991	0.1934569
10	0xbd6205f3	-0.055181455
11	0x3dc000b6	0.093751356
12	0x3e005836	0.1253365
13	0x3e91efda	0.28503305
14	0x3c1ffabf	0.009764372
15	0x3d9549c2	0.07289459
16	0x3e52b819	0.2057804
17	0x3c965ec8	0.018355742
18	0x3d94d27a	0.07266708
19	0x3db070e1	0.0861528
20	0x3d48085b	0.048836093
21	0x3d97fcc5	0.07421259
22	0x3d02ab72	0.031901784
23	0x3e5f330f	0.21796821
24	0x3d92994a	0.07158144
25	0x3d9ebff1	0.07751454
26	0x3d8c075d	0.06837342
27	0x3d6c5a99	0.05770359
28	0x3e840a44	0.25789082
29	0x3e7679e9	0.24069943
30	0xbd23c5f9	-0.039983723
31	0x3ddda060	0.10821605
32	0x3d7bbb94	0.061458185
33	0x3d4d4f7f	0.05012464
34	0x3df2d2da	0.11856623
35	0x3db5e933	0.0888237
36	0x3ccf2146	0.02528442
37	0x3e091839	0.13388146
38	0x3d4d5ed7	0.050139274
39	0x3e70a147	0.23499022
40	0x3e01ae77	0.1266421
41	0xbc6de578	-0.014520042
42	0x3e32dd25	0.17467172
43	0x3d9f06ee	0.077649936
44	0x3d212232	0.03933925
45	0x3de9ddbb	0.11419245
46	0xbc5639fe	-0.01307535
47	0x3daacd5d	0.08339951
48	0x3c026cd2	0.007960515
49	0x3e4c89cb	0.19974439
50	0x3e021c2f	0.12706064
51	0x3d35ca49	0.044382367
52	0x3d979a83	0.07402518
53	0x3e2b7a2d	0.16745825
54	0x3e1ab4fb	0.15108101
55	0x3e4ae042	0.1981211
56	0x3d8ac24e	0.06775342
57	0x3ca346da	0.019931246
58	0x3c402f3d	0.0117300125
59	0x3d84ca01	0.06483842
60	0x3e7357ca	0.23763958
61	0xbbd9cc63	-0.0066466792
62	0x3da67d0c	0.081293195
63	0x3d77f0cd	0.06053238

batch.weight f4 [64]
0	0x3e8e2c9c	0.2776841
1	0x3f0172bc	0.50565696
2	0x3eec25b6	0.4612252
3	0x3e93710e	0.2879719
4	0x3eed5d46	0.46360224
5	0x3e5e2fa1	0.21697856
6	0x3f64c481	0.8936234
7	0x3e7fd90c	0.2498514
8	0x3ec5feef	0.3867106
9	0x3efa1e5b	0.48851284
10	0x3f817310	1.0113239
11	0x3f1469ae	0.57973754
12	0x3f0a2c56	0.539739
13	0x3f1d075d	0.6133936
14	0x3f3f510f	0.7473306
15	0x3f0ab06c	0.5417545
16	0x3efecbd2	0.49764878
17	0x3ebad3f3	0.3648983
18	0x3ede7c05	0.43453994
19	0x3eb1e87f	0.34747693
20	0x3e9ce33a	0.3064211
21	0x3f05cf9c	0.5226991
22	0x3f6466f2	0.8921958
23	0x3edb2baa	0.4280675
24	0x3ef78efa	0.4835127
25	0x3f0e8018	0.55664206
26	0x3f00f343	0.5037119
27	0x3ea91ce6	0.3302986
28	0x3eac446e	0.33645958
29	0x3ebb9ba1	0.36642173
30	0x3f8ec9d6	1.1155345
31	0x3f5b5fd1	0.8569308
32	0x3eb2c5c6	0.34916514
33	0x3eb7475b	0.35796627
34	0x3e99cbcd	0.300383
35	0x3ed73ac7	0.4203703
36	0x3ef066bb	0.46953377
37	0x3f1712b0	0.5901289
38	0x3f3c7b4f	0.73625654
39	0x3f038ba8	0.51384974
40	0x3e925d34	0.28586733
41	0x3f076125	0.52882606
42	0x3f53598f	0.8255853
43	0x3f1cdd1a	0.61274874
44	0x3e9d939e	0.30776685
45	0x3ef1a93c	0.47199428
46	0x3f671126	0.9026054
47	0x3eb765e0	0.35819912
48	0x3ee1e44f	0.44119498
49	0x3ed24df8	0.4107511
50	0x3f24db9e	0.6439761
51	0x3f1e878a	0.61925566
52	0x3f24c291	0.64359385
53	0x3f7d9833	0.9906036
54	0x3f536385	0.8257373
55	0x3eb07f66	0.34472197
56	0x3ec39517	0.38199684
57	0x3e91ad8f	0.28452727
58	0x3f34e333	0.7065918
59	0x3edfdfee	0.43725532
60	0x3f0dde0c	0.5541694
61	0x3f14c025	0.5810569
62	0x3f04294d	0.5162552
63	0x3f4fc60f	0.8116159

batch.bias f4 [64]
0	0x3e92a1b1	0.28638986
1	0xbec44c01	-0.38339236
2	0x3e2a8a11	0.1665423
3	0xbe41de81	-0.18932535
4	0xbd50fde8	-0.051023394
5	0x3fac1552	1.3444006
6	0xbe937369	-0.28798988
7	0xbe4b162e	-0.1983268
8	0xbe7aa242	-0.24475959
9	0xbf0e9448	-0.5569501
10	0xbef0eec2	-0.47057158
11	0xbec2beab	-0.38036093
12	0xbea4b1f9	-0.32167032
13	0xbe9665c9	-0.2937453
14	0xbdaa44fd	-0.0831394
15	0xbe761b39	-0.24033822
16	0xbd98fdb8	-0.07470268
17	0xbed821ec	-0.4221338
18	0x3d9dcfca	0.07705648
19	0xbddf86d5	-0.10914389
20	0xbebf0f9b	-0.37316594
21	0xbe1fab51	-0.15592696
22	0xbef946d4	-0.4868685
23	0xbeda2467	-0.42605898
24	0xbdef1ffe	-0.11676024
25	0xbdde0559	-0.10840864
26	0xbe68f92e	-0.22751305
27	0xbe749db2	-0.23888281
28	0x3d0c7d52	0.034299202
29	0xbe6eb038	-0.2330941
30	0x3e14a1ef	0.14514898
31	0xbe135d14	-0.14390975
32	0xbe83ca27	-0.25740167
33	0xbebfa127	-0.37427637
34	0xbd9b718f	-0.07590019
35	0xbda07674	-0.07835093
36	0xbdc85ddf	-0.097835295
37	0xbe7da81d	-0.24771161
38	0xbe5463cc	-0.20741194
39	0xbea9efa8	-0.33190656
40	0xbd596f53	-0.053084683
41	0xbe104dcf	-0.14092182
42	0xbf14af65	-0.5808013
43	0xbe98db16	-0.2985465
44	0xbcf6d275	-0.03012965
45	0xbe9658bc	-0.29364574
46	0xbed5fe8f	-0.41795775
47	0xbd02c70a	-0.0319281
48	0xbeccf0d5	-0.4002749
49	0xbebd7b7e	-0.3700828
50	0xbf14641b	-0.5796525
51	0xbe4d8652	-0.2007077
52	0xbf2fac3e	-0.68622196
53	0xbe489ef6	-0.19591889
54	0xbf69424f	-0.91116804
55	0xbea01462	-0.3126555
56	0xbe7ff50c	-0.24995822
57	0xbe004d47	-0.12529479
58	0xbdf83fe3	-0.121215604
59	0xbe75aa3b	-0.23990719
60	0xbe117f98	-0.1420883
61	0xbe1713ad	-0.147536
62	0xbe964856	-0.29352063
63	0xbdd47852	-0.10374512

batch.running_mean f4 [64]
0	0xbea492a5	-0.3214313
1	0x3f217f65	0.63085014
2	0xbe1fc28c	-0.15601557
3	0x3ea77843	0.3270894
4	0xbe52cb0b	-0.20585267
5	0xbea2be05	-0.31785598
6	0xbe02a5d3	-0.1275857
7	0x3ea73b23	0.32662305
8	0xbdf7cefe	-0.121000275
9	0x3de60308	0.11231047
10	0xbea93974	-0.33051646
11	0x3e4fd5e9	0.20296444
12	0x3df78568	0.12085992
13	0xbe505c3b	-0.20347683
14	0xbf544e0e	-0.829316
15	0xbd4acce8	-0.04951182
16	0xbd0bf60a	-0.034170188
17	0x3d2c332e	0.042040996
18	0xbe33c59b	-0.17555849
19	0x3eb329e9	0.34992912
20	0x3e29e35e	0.1659064
21	0x3e709adc	0.23496574
22	0xbd209c9c	-0.039211854
23	0x3e9aeb63	0.3025771
24	0x3e5b38ec	0.21408433
25	0xbe8ff9bf	-0.2812023
26	0x3b575647	0.0032857822
27	0x3eda0012	0.4257818
28	0xbe6fb0b9	-0.23407258
29	0x3e63a7e0	0.22232008
30	0xbf379c5d	-0.71722966
31	0xbf0f4351	-0.5596209
32	0x3eb8bc94	0.36081374
33	0x3f079a6d	0.5297001
34	0x3d318154	0.043336228
35	0xbe96683b	-0.29376397
36	0x3e82bd28	0.2553494
37	0x3dc12003	0.09429934
38	0x3e70dc01	0.23521425
39	0x3f0c91bb	0.5490987
40	0x3ecb4abf	0.39705464
41	0xbe007709	-0.12545408
42	0x3e160eb1	0.14654042
43	0xbca02646	-0.0195495
44	0x3e78cb69	0.24296345
45	0xbd200675	-0.039068658
46	0xbe0ff2d5	-0.14057477
47	0x3e27ec66	0.16398773
48	0x3befe1f5	0.0073206373
49	0x3eb17820	0.3466196
50	0x3ebfde06	0.37474078
51	0xbe006c59	-0.12541331
52	0xbd98b859	-0.074570365
53	0xbe3ee4dc	-0.1864199
54	0x3e9ec0d9	0.31006506
55	0x3e9489e5	0.29011455
56	0x3e83bbcc	0.25729215
57	0x3e1ba5d8	0.15199983
58	0xbd3b8ca9	-0.04578844
59	0x3ee9c893	0.45660838
60	0xbd903c2c	-0.07042727
61	0x3ba0ff48	0.0049132444
62	0x3ebb7091	0.3660932
63	0xbef7270a	-0.48271972

batch.running_var f4 [64]
0	0x3fa3cc95	1.2796808
1	0x3fab9345	1.3404318
2	0x3f9b3f8e	1.212877
3	0x3f3ffa9b	0.7499177
4	0x3faf9c6b	1.371961
5	0x3fcfa1bf	1.6221236
6	0x3fdec382	1.7403414
7	0x3f430cf3	0.76191634
8	0x3f2ec034	0.6826203
9	0x3f78a1db	0.9712197
10	0x401d2a79	2.4557173
11	0x3fbac542	1.4591448
12	0x3f9a78e4	1.2068143
13	0x3fc429ad	1.5325218
14	0x3ffa6893	1.9563164
15	0x3fba69be	1.456352
16	0x3fe34289	1.775468
17	0x3ee71f36	0.45141
18	0x3fbbdc49	1.4676601
19	0x3f9f7e02	1.246033
20	0x3f902a90	1.1262989
21	0x3f36ef54	0.71458936
22	0x401498ff	2.3218381
23	0x3f604ac2	0.8761407
24	0x3fdc0c4c	1.7191253
25	0x3fe738b7	1.8064183
26	0x3fc5e540	1.5460587
27	0x3f49f92f	0.7889585
28	0x3f7aaf05	0.9792331
29	0x3f322765	0.6959136
30	0x405f196f	3.4859273
31	0x40778e3c	3.8680563
32	0x3f5ca1ff	0.86184686
33	0x3f3a22b7	0.7270922
34	0x3f240cb6	0.64081895
35	0x400fe02f	2.248058
36	0x3fa86bde	1.3157918
37	0x3f8278b0	1.0193081
38	0x3fc8ec91	1.5697194
39	0x3f94c21b	1.1621736
40	0x3fa430fd	1.282745
41	0x3fc312de	1.5240133
42	0x40129737	2.2904794
43	0x3f96c817	1.1779813
44	0x3f40751d	0.751787
45	0x3f53c40b	0.8272101
46	0x3fe79007	1.8090829
47	0x3f5cbf04	0.86228967
48	0x3f308332	0.6895019
49	0x3f8b853a	1.0900033
50	0x3f857a7c	1.0428004
51	0x3fb67f93	1.4257683
52	0x3f75b421	0.9597798
53	0x4018e339	2.3888686
54	0x3f8ab19d	1.0835453
55	0x3f5fd3cc	0.8743255
56	0x3f8b06de	1.0861471
57	0x3f93b7b5	1.1540438
58	0x3fd08130	1.6289425
59	0x3f67e2a0	0.9058018
60	0x40235127	2.5518281
61	0x3ff00535	1.8751589
62	0x3f2d6af5	0.6774133
63	0x401fa94c	2.494708
